student4.pth (torch, 34214 bytes, 27 tensors)

total_ops f8 [1]
000000 00 00 00 00 00 00 00 00
       0.0

total_params f8 [1]
000000 00 00 00 00 00 00 00 00
       0.0

conv.total_ops f8 [1]
000000 00 00 00 00 00 00 00 00
       0.0

conv.total_params f8 [1]
000000 00 00 00 00 00 00 00 00
       0.0

conv.0.weight f4 [3, 1, 3, 20]
000000 d3 cd 11 3e da 35 86 3d 64 3b bd 3d 2b 5a 4e 3d
       0.14238672 0.0655324 0.092398435 0.05037896
000010 de e3 b0 3d 8a b9 f0 3d 15 76 33 bc 00 b9 12 bd
       0.08637212 0.11754139 -0.010953446 -0.03582096
000020 12 f7 c0 bd a9 42 b6 bc ae 02 a1 bc e4 63 07 bd
       -0.09422125 -0.022248583 -0.019654598 -0.033054247
000030 5f dd 0f bd 09 66 ad bd e2 5e 12 bd 3d f7 62 3d
       -0.035123225 -0.08466727 -0.03573502 0.055411566
000040 b4 b0 0d be 23 23 1a bd f5 7b ee 3c 6a ab ab bd
       -0.13836938 -0.037631165 0.029111842 -0.08382304
000050 1e ea 89 38 b0 4b 08 3e 62 54 21 bc 28 ff f6 3d
       6.576277e-05 0.13310122 -0.009846779 0.12060386
000060 26 77 d4 3c 81 e8 b7 bc 81 be de 3d 14 ad 94 3d
       0.02593572 -0.022449734 0.108761795 0.072595745
000070 42 a2 1c 3d e3 c7 f1 3d 8b 9e 84 bd 0c 8b 9b bd
       0.03824068 0.118057035 -0.06475552 -0.075948805
000080 cc 0e 2e bd be 2d fa 3c e3 94 e9 bd b5 00 0c be
       -0.04249458 0.03053939 -0.11405351 -0.13672145
000090 0c 1a 83 bc d6 94 c9 bd ba 57 45 bc 54 11 4f bd
       -0.016003631 -0.09842841 -0.012044841 -0.050553635
0000a0 d7 4c 80 3d 3c 8c db 3d e5 c3 28 bd 2c 05 c4 3d
       0.06264656 0.10720107 -0.041202445 0.09571299
0000b0 71 92 9a 3d 6a af 97 bd 2c 0a 12 bd 2e 56 46 3c
       0.07547463 -0.074065045 -0.035654232 0.012105508
0000c0 a0 69 1c bb ac 95 5d bc 25 46 06 3d dc 72 62 3d
       -0.0023866668 -0.013524454 0.03278174 0.05528532
0000d0 80 c0 94 3d 75 89 f6 bc 04 db b7 3c 41 3a 48 3d
       0.07263279 -0.030094841 0.022443302 0.04888368
0000e0 08 99 c5 bd 0c fa 0d bd f1 fe 3b be 2a c4 77 bd
       -0.09648329 -0.03466229 -0.18358971 -0.06048981
0000f0 8f 66 dc 3c 01 ac ad bd a1 17 96 3d 1a 6a 5c bd
       0.026904372 -0.08480073 0.073287256 -0.053812124
000100 25 4e c2 3d b0 4a a8 bd c3 89 cd bc 96 66 cf bc
       0.09487561 -0.082173705 -0.025090104 -0.025317471
000110 06 0e 8d 3c 9e 74 00 3c 8d a2 34 bc 94 3f af 3d
       0.017218601 0.007840304 -0.011025083 0.085570484
000120 a6 30 95 3d 86 da c5 3c 01 b9 dc 3b fd 89 73 3d
       0.072846696 0.024152052 0.0067359214 0.059457768
000130 4e 4b 28 3d fc d0 20 bd f4 89 2f bc 34 d1 e3 bd
       0.04108744 -0.039261803 -0.010714043 -0.11123887
000140 6f de e6 bd b1 82 9c bd 76 f5 df 3b 11 00 09 bc
       -0.112728946 -0.07642115 0.006834681 -0.008361832
000150 a1 bd 3d 3d f4 66 cf 3d a8 bf 6e bd 99 46 a2 3d
       0.046323422 0.101270586 -0.058288246 0.07923622
000160 a4 be 82 3d f2 aa 47 3d 77 1e 81 3d 8b ef 4c 3d
       0.06384018 0.04874701 0.06304639 0.050033133
000170 1f 19 a3 bd 79 60 62 bd 99 43 89 bd c2 a4 a5 3c
       -0.07963776 -0.055267785 -0.06702346 0.020220164
000180 66 07 29 3d 66 c8 8c 3d 88 a3 dc bd 6d f7 af 3b
       0.04126682 0.068741605 -0.107733786 0.0053700716
000190 d4 bc d9 bc 7f d2 7c bd 83 d1 f3 bc 38 aa b8 3c
       -0.026579298 -0.061724182 -0.029762989 0.022542104
0001a0 96 66 9d 3d ab 61 8e 3d a2 d3 b6 3d 3b 5d cb 3d
       0.07685582 0.069522224 0.089270845 0.09929892
0001b0 28 c1 26 bd ff 10 13 3c dc d0 6e 3d 61 6a 7c bd
       -0.040711552 0.00897622 0.058304653 -0.06162489
0001c0 78 7a ee bc 1c 74 ad 3c 79 de b7 3d 87 3f 25 3d
       -0.029111132 0.02117353 0.0897798 0.040343788
0001d0 ff 21 a1 bd ca 04 41 bd 5b 98 4c bd 3a ec 28 bd
       -0.07867812 -0.047123708 -0.049949985 -0.04124091
0001e0 f2 1e 4e 3d c4 04 fb 3c f4 8e 06 bd 49 35 7c 3d
       0.05032248 0.03064192 -0.032851174 0.061574254
0001f0 d3 d4 11 3e 69 3e 7b bd 50 f7 bc bc d1 27 a9 3d
       0.14241342 -0.061338816 -0.023067147 0.082595475
000200 d5 f8 77 3d 8c 59 93 bb d3 91 66 3d 72 4b dc ba
       0.06054004 -0.004496759 0.056291413 -0.0016807152
000210 66 cc 62 3b 80 77 b4 bd 91 6e d1 bd d1 81 bb 3c
       0.0034606694 -0.08811855 -0.10226167 0.02288905
000220 17 59 99 bc af 60 97 bd 2e 84 be bd fb ad bf bd
       -0.01871924 -0.07391488 -0.09302555 -0.09359356
000230 04 01 a4 bd 23 f7 40 3d db f1 11 3e 27 29 19 3d
       -0.08008006 0.047110688 0.14252417 0.03739276
000240 fd a4 27 bd 4e 09 b1 3d 2e 0b a4 3d cf 96 02 3d
       -0.04092883 0.08644353 0.08009945 0.031882104
000250 1f 32 2f bd c8 69 07 bd b0 de 0b bd b5 b9 50 3d
       -0.04277241 -0.033059865 -0.03414792 0.050958354
000260 8d ed d7 bc 7e 03 c8 bd 46 28 42 3d e7 81 ab 3c
       -0.02635839 -0.09766291 0.04740169 0.020935966
000270 3b d6 19 bc 66 50 db bd ee 65 b5 bd 6b 68 5f bc
       -0.009389455 -0.10708694 -0.08857332 -0.013635735
000280 40 87 7f 3d 36 e4 20 bd 09 e7 84 bd 02 11 bd 3d
       0.062384844 -0.03928014 -0.06489379 0.092317596
000290 ca c4 6d bd 42 4e e5 3d 95 77 a1 3c b5 9e 8b bd
       -0.058049 0.11196567 0.019710341 -0.0681738
0002a0 8a 59 2a bb 0f 2a 8a 3d c0 aa 4f 3d 63 25 81 bd
       -0.002599331 0.06746303 0.05069995 -0.06305959
0002b0 9d 60 86 3d 55 8b 05 3d b2 90 58 bd 9f 35 e1 3c
       0.06561396 0.03260358 -0.052872367 0.027491389
0002c0 48 3d 05 be 19 4a ee 3c 1e 6c a8 bd f1 23 e4 bd
       -0.13011658 0.029088067 -0.08223747 -0.11139668

conv.0.bias f4 [3]
000000 70 55 af b9 9c 5b 03 bd fd d5 69 3e
       -0.00033442257 -0.032069787 0.22835536

conv.1.total_ops f8 [1]
000000 00 00 00 00 00 00 00 00
       0.0

conv.1.total_params f8 [1]
000000 00 00 00 00 00 00 00 00
       0.0

gru.weight_ih_l0 f4 [54, 57]
000000 c3 48 ed bd 72 71 02 3e 2c b5 c7 3d 78 9a 94 bd
       -0.11586144 0.12738588 0.09751353 -0.07256025
000010 ea 92 68 bd 7c c1 09 3e f7 2d 65 be e6 94 1d 3e
       -0.056780733 0.13452715 -0.22380815 0.15388831
000020 cd 4e 86 3c b0 56 81 be bf ec 5d be 2b 2f 73 be
       0.016394997 -0.2526145 -0.21672343 -0.23748462
000030 81 b8 0f be 03 43 b7 be 23 1c 19 be 32 6f 89 be
       -0.14035226 -0.35793313 -0.1495214 -0.26842648
000040 89 cc 7b be e2 4f 89 3d ea 98 5b be a0 d9 25 3e
       -0.24589743 0.067046896 -0.21445051 0.16196299
000050 0a 04 a1 bd 55 21 d4 bd cf fb 64 bd c2 72 60 3d
       -0.078620985 -0.1035792 -0.055904206 0.05479694
000060 93 a8 51 3c 4c ef b0 bd 41 aa 0a bd 17 b4 0f 3e
       0.012796539 -0.08639392 -0.033853773 0.14033543
000070 14 09 07 be 06 12 ca 3d c0 11 68 3e d6 ac f0 bd
       -0.13187057 0.09866719 0.22663021 -0.11751716
000080 46 2f 25 3e c0 0a c7 bd 72 51 05 be 47 50 0f 3e
       0.16131315 -0.09718847 -0.1301935 0.13995467
000090 3b 4a 11 3e 58 11 c0 bd 17 c4 e8 bd 3f c1 47 bd
       0.14188473 -0.09378308 -0.11365526 -0.04876828
0000a0 f4 99 43 bb f3 24 74 bd 8d c8 fa bd a4 03 8e be
       -0.0029846402 -0.05960555 -0.12245283 -0.27737153
0000b0 72 f2 91 bd e2 c1 02 3e ec 8a 60 be 83 81 ae bd
       -0.07126321 0.12769273 -0.21927994 -0.08520796
0000c0 52 a7 c4 3d c2 7f a7 3c 3f c4 19 be 9e 6f 57 bd
       0.09602226 0.020446662 -0.15016268 -0.05259668
0000d0 f6 d7 cc bd 44 0a ab bd 03 61 2a be b1 95 a5 3d
       -0.10002129 -0.083515674 -0.1663857 0.08085192
0000e0 b1 db 1e bc cb be 2b be f5 5d eb bc 4e b3 c8 3a
       -0.009695933 -0.16772 -0.028731326 0.0015312226
0000f0 1d ba b6 bd 84 e7 28 be ad 35 50 3c 96 6f 45 3d
       -0.08922217 -0.16494566 0.01270811 0.04820212
000100 69 14 44 be e4 52 43 3d 5e f1 98 be 21 37 59 bd
       -0.19148411 0.047686473 -0.2987165 -0.05303109
000110 4f 04 28 3e c6 dc ad 3e 77 01 17 3e e1 37 bf 3e
       0.16407894 0.339575 0.14746653 0.3734732
000120 9b be 03 3e 79 92 38 be 55 74 54 bd 83 3d d2 be
       0.12865679 -0.18024625 -0.051868755 -0.41062555
000130 34 e3 d8 bd 53 4e dc bb 76 d8 60 be 4d 44 1f 3e
       -0.105902106 -0.006723204 -0.21957573 0.15553398
000140 9b 45 60 be db c4 5c 3e 44 9b 66 3e 5a 6b 5a 3e
       -0.21901552 0.2155947 0.22520167 0.21330014
000150 9a d7 09 3e 15 51 7b bd 4b be 6f 3d 5d 6b 54 be
       0.13461152 -0.061356623 0.058531087 -0.20744081
000160 28 10 b2 3d c2 f1 2e be bd b6 a2 be 3a 1b 94 be
       0.08694488 -0.17084411 -0.31780043 -0.28927022
000170 dc b9 89 bd ba 61 2f be fa 37 9d be 9e 9f d8 bd
       -0.06724903 -0.17127123 -0.3070677 -0.105773196
000180 d2 80 fe 3d 9b 99 67 3e d7 8a 09 be 84 df ee bd
       0.12426914 0.2261719 -0.1343187 -0.11663726
000190 0e 20 51 be a0 b4 20 3d 1c a6 fc 3d 56 5b 0e be
       -0.20422384 0.039234757 0.1233637 -0.1390203
0001a0 c3 f5 f9 3b e6 fc 0d be 1d 23 29 be 0d e8 1a 3e
       0.007628174 -0.13866004 -0.16517301 0.15127583
0001b0 6b a7 08 3f c9 23 f4 3e e0 38 8a 3e cc c1 b4 3d
       0.5338046 0.47683552 0.26996517 0.08826026
0001c0 8d ef d7 bb 7e 82 2c be 51 05 0f bc 72 98 fb 3d
       -0.006589836 -0.16846654 -0.008729295 0.12284936
0001d0 b7 d5 32 bd 9b 3c ce 3d 81 ec 72 be ec f0 31 be
       -0.043660846 0.10070153 -0.23723032 -0.1737706
0001e0 b0 a4 3d be ab 32 51 3d fb 42 bb 3c e4 1c 71 3d
       -0.18519855 0.05107371 0.022859087 0.058865443
0001f0 0d c3 21 be 6e a2 5f be 53 31 1c 3e cf 48 6f be
       -0.15797062 -0.21839306 0.1525319 -0.23367618
000200 92 8a 2a be d2 f4 1f be e4 90 7a 3e 93 0e 5d 3e
       -0.16654423 -0.15620735 0.24469334 0.21587591
000210 13 35 90 bd 0b 9a f9 3d b4 4c 0d be 83 5e 25 3e
       -0.07041373 0.121875845 -0.13798791 0.16149335
000220 68 a7 10 be 92 94 4f bd bc 55 ad bd 4d b9 7d 3d
       -0.1412636 -0.050678797 -0.08463618 0.061944295
000230 6c 24 d7 3d 6d 52 c0 3c 72 cc c0 3d 18 e6 39 be
       0.10504994 0.023476804 0.09413995 -0.1815418
000240 aa 2f f0 bd 16 de 08 bd d6 5a e9 bd 2e fb 0c 3e
       -0.11727841 -0.033414923 -0.11394279 0.13767692
000250 ad 26 e8 3d a7 4a 9a 3d f7 ba b2 bd 5b 90 3e be
       0.11335502 0.0753377 -0.08727067 -0.18609755
000260 99 09 60 3e fd 89 8b 3d 6e e8 97 bd 82 d0 01 3e
       0.21878661 0.068134286 -0.07417379 0.12677196
000270 8e 26 11 3e ad f1 27 be 8d 3f 45 3e f1 f7 15 be
       0.14174864 -0.16400786 0.19262524 -0.14645363
000280 f7 e4 61 be 6b e4 83 3d ae f8 26 be 49 77 a4 bc
       -0.2206 0.06440052 -0.16305801 -0.02007641
000290 42 87 00 3e 31 23 a3 bd 2b 43 18 bc 9d ee 58 3e
       0.12551597 -0.079656966 -0.009293358 0.21184774
0002a0 a3 4f 88 3e 95 d3 49 3e d7 a5 72 3c 8d 0f 16 3e
       0.26623258 0.19709618 0.014810047 0.1465437
0002b0 44 f9 29 3d e7 0b 22 3d 2d fd 23 be 97 d0 53 3d
       0.041497484 0.039562132 -0.16014548 0.0517126
0002c0 57 69 87 3e 30 84 39 3e 47 fe 47 3e 3b d4 a1 3c
       0.26447555 0.18116832 0.19530593 0.01975452
0002d0 43 da 72 3d cc b5 82 3d f7 1b 3e be 72 e8 13 bd
       0.05929018 0.06382331 -0.18565355 -0.03611035
0002e0 24 1a db 3d fa e4 db 3d 52 36 50 3c 1b 8a 51 be
       0.10698345 0.10737033 0.0127082635 -0.2046284
0002f0 d3 c5 f5 3d a4 16 b3 bc e8 cf ba be ef 55 f6 be
       0.120006226 -0.021861382 -0.36486745 -0.48112437
000300 2d 56 53 be 4e 91 9a be ee 33 d5 bd 9b d9 84 be
       -0.20638342 -0.30188984 -0.104102954 -0.2594727
000310 b8 d4 9b be 3e 28 c9 be 9e 57 d7 be 7c 62 7a bd
       -0.3043573 -0.39288515 -0.42059034 -0.06112908
000320 0b 9a 8d be 9a 8d e1 bd 8e 0a 02 be 93 2d 1c be
       -0.27656588 -0.110133365 -0.12699339 -0.1525176
000330 54 26 20 be ed 36 58 be be 08 8e bb 3e 5c 9f 3d
       -0.15639621 -0.21114703 -0.0043345382 0.07781266
000340 23 e0 57 be 1f 77 29 bc 6b f7 dc 3c 44 ed 53 3d
       -0.21081595 -0.010343342 0.026973447 0.051739946
000350 cf 5d bd bc 96 62 27 be 4d f4 0b be 77 44 7f be
       -0.02311602 -0.16346201 -0.13667412 -0.24928461
000360 bc cb da 3c 3f e1 e7 bd 77 ac fb bd a9 a1 8d be
       0.026708476 -0.11322259 -0.122887544 -0.276624
000370 f2 8d cc 3d c8 08 c2 bd d7 1f 3c be cd 7b 22 bc
       0.099880114 -0.09474331 -0.18371521 -0.009917212
000380 66 8f ae 3d e2 76 85 bd a8 b4 48 be 28 3c 1a bc
       0.08523445 -0.06516816 -0.19600165 -0.009413756
000390 80 51 89 3d c7 23 26 3b 97 b9 16 3e 64 dd 42 3e
       0.06704998 0.0025350915 0.14719234 0.19029766
0003a0 ee a6 db bd bb 5c 4b be 10 86 71 be f5 3c d6 3d
       -0.10725199 -0.19859593 -0.23586297 0.104608454
0003b0 12 ca 83 be 11 f5 b2 bd ca 6e f8 3d 8d 99 d1 3e
       -0.25740105 -0.08738149 0.12130506 0.40937462
0003c0 52 82 97 3e 0b b9 55 3e 94 a3 b4 3e 81 4e 90 3e
       0.29591614 0.2087137 0.3528105 0.28184894
0003d0 40 91 86 3e 0a 10 1a 3c 46 3d 8f 3e 68 c3 60 3c
       0.26282692 0.009403238 0.27976435 0.0137184635
0003e0 ac 44 c6 3d 40 b2 66 3d 04 e4 11 bd 99 2a 8c 3d
       0.09681067 0.056322336 -0.035617843 0.06844062
0003f0 86 6d f2 bd 33 93 1f be 9a 86 43 3d 58 bc 0c be
       -0.11837296 -0.15583496 0.047735788 -0.13743722

gru.weight_hh_l0 f4 [54, 18]
000000 03 1c 58 bd 32 b0 3e 3e fe c6 62 bd 1e 05 6b be
       -0.05276109 0.186219 -0.055365555 -0.22951171
000010 a0 30 d7 bd 17 77 55 3d 48 2c 22 3e 67 7d 7d be
       -0.10507321 0.052115526 0.15837204 -0.24754868
000020 25 c9 29 3e 67 89 76 bd 5b 7c 46 be f6 14 ae 3d
       0.16580637 -0.06018963 -0.19383375 0.08500092
000030 bf e9 90 3d 7c ee 4e be 9a 4b 21 be 03 eb 3d 3e
       0.070758335 -0.20208162 -0.15751496 0.18546681
000040 6d 1b 90 3e bd e5 62 3e ee ff 6d bc 5c 2e 23 be
       0.28145924 0.2215795 -0.01452635 -0.15935653
000050 d5 d4 a3 be 0e 76 1e 3d 12 f0 d9 bd e3 2e 60 bd
       -0.31998315 0.038686804 -0.10641493 -0.054732215
000060 a8 11 45 3e 40 9d bd be 30 1e af bd 97 70 48 bd
       0.19245017 -0.37034035 -0.0855068 -0.0489355
000070 8c 85 9b bc 05 2f 0b be 6c da 9f 3d 23 37 02 3e
       -0.018984579 -0.13592155 0.078053325 0.12716345
000080 33 90 7e bd 96 bb b2 bd c4 ce 28 3d e4 92 bf 3d
       -0.062149238 -0.087271854 0.041212812 0.09354189
000090 1c 13 2c be a2 15 d7 3d 0c 01 68 be 9f 29 c3 3d
       -0.16804165 0.10502173 -0.2265665 0.09529423
0000a0 29 e3 67 3d c2 e0 32 be d7 01 6a 3d f6 ba 7d be
       0.05661312 -0.17468551 0.05713066 -0.24778351
0000b0 4f 3d 6f 3d aa ac 07 3e 21 88 1d be cc d6 3f 3e
       0.058408078 0.1324946 -0.1538396 0.18734282
0000c0 5b 36 03 bd 42 73 ee bd 4f 7e 0b 3e 99 d2 4b be
       -0.03203426 -0.116430774 0.13622402 -0.19904555
0000d0 18 5d 3e 3e 89 1d 3c 3e 08 d8 4c 3d e4 e8 c5 be
       0.185902 0.18370642 0.05001071 -0.38654244
0000e0 bc 3c 70 bc 33 8b d4 3c e2 b3 46 3e b8 34 48 bd
       -0.014662918 0.025945282 0.19404557 -0.0488784
0000f0 a1 1f 20 3d db e2 75 be 8a 41 80 bd d7 d8 14 bd
       0.039092664 -0.2401232 -0.062625006 -0.036339607
000100 ee a4 c4 bb 5f ea db bd 91 6a b5 3e 7a 57 dd 3d
       -0.0060011065 -0.10738062 0.35432866 0.108077005
000110 fd 4b 47 3c 22 8b d1 3c 06 0b 41 be 77 45 26 3e
       0.012164113 0.025579039 -0.18851861 0.16237436
000120 5d d2 85 bd b7 13 f6 3c b5 4b 89 3e 8f c1 09 3e
       -0.06534264 0.030038698 0.26815572 0.13452743
000130 40 f2 d2 bd 0e e6 88 be 9a f4 07 be 6c 92 02 bd
       -0.10300112 -0.26738018 -0.13276902 -0.03187792
000140 5b 26 e3 bd 49 28 91 3e 80 aa 76 3e 19 9f 7c be
       -0.110913 0.28351048 0.24088478 -0.24670066
000150 c4 d7 6b be db bf 0e 3e 6a d5 d5 3e 69 30 4f be
       -0.23031527 0.13940375 0.41764385 -0.20233311
000160 ea a4 eb 3d 1c d1 03 be 40 99 8a bd 30 7e 92 bd
       0.11506064 -0.12872738 -0.06767511 -0.071529746
000170 d2 56 51 3d 7a 1e cf 3c 00 25 ec bd 68 80 9a 3d
       0.05110819 0.025283087 -0.11530495 0.07544023
000180 a6 dd 78 3e 81 f1 3b be 36 6f 3c 3e 33 fe 1f 3e
       0.24303302 -0.18353845 0.18401799 0.15624313
000190 c9 8a 09 3e 41 04 53 3e 84 26 7d be 36 91 c7 3d
       0.13431849 0.20607091 -0.24721724 0.09744494
0001a0 be ba 7d 3e fe f2 74 be 89 db aa bb 6f b0 8b be
       0.24778268 -0.23920819 -0.005214159 -0.27283046
0001b0 47 e5 14 3e 5e 38 88 bc 99 e8 40 3e 8f c7 b3 ba
       0.14540587 -0.01662844 0.18838729 -0.0013716089
0001c0 e5 17 4c 3d 2a 4c 1f 3e 0e e7 4d be f8 cc af bd
       0.049827475 0.15556398 -0.20107672 -0.085840166
0001d0 c8 db 23 3e 1c 84 ed bd bb 16 14 3d 24 58 f4 bc
       0.16001809 -0.115974635 0.03615449 -0.029827185
0001e0 8a 5d b5 3c 54 79 f1 bd 13 26 14 3d 2c 83 8d 3d
       0.02213933 -0.1179072 0.036169123 0.06909785
0001f0 44 0b d1 be 82 1b 22 bd 19 ae 13 3e e0 9c 96 be
       -0.40828907 -0.039577015 0.14421882 -0.2941656
000200 3b d3 fc bd 2d 3f 21 bd 1f 6c 26 3e ed 18 f3 3d
       -0.123449765 -0.03936689 0.16252182 0.118699886
000210 01 40 ab 39 c4 22 8a 3e a5 03 81 bd d7 55 e3 3d
       0.00032663348 0.2697965 -0.06299523 0.11100357
000220 ab 49 52 3e 2b 57 96 bb 39 61 3c be c4 fa 19 be
       0.20535915 -0.004588028 -0.18396463 -0.15037066
000230 9f 71 17 3d ab 61 36 be 37 fe ce bd d6 f8 bb be
       0.036973592 -0.17810695 -0.101070814 -0.36713284
000240 f3 8d 67 bd 55 7b 0d 3d 8f c0 31 3e b1 3e 59 3d
       -0.056531858 0.034541447 0.17358612 0.053038303
000250 11 46 86 3c 09 31 db bb ba 2f 16 bd a9 ff 41 be
       0.016390832 -0.006689195 -0.03666661 -0.18945183
000260 50 10 95 3e 4c 92 92 bb 05 df 90 bd b3 f5 a8 3e
       0.29114008 -0.0044730064 -0.070737876 0.32999954
000270 27 d4 61 3d 10 11 45 be 25 13 92 3d f4 2b d4 bd
       0.055133965 -0.1924479 0.07132558 -0.10359946
000280 b7 82 44 bc 3f 4e 09 be d8 e9 90 bd de e7 56 be
       -0.0119940555 -0.13408755 -0.07075852 -0.20986888
000290 c6 84 a8 3d 94 7d 93 be 2b 47 86 bd 95 20 25 bd
       0.082284495 -0.28806746 -0.06556543 -0.040314276
0002a0 cd d6 84 3b 2b c6 2f be 3b a4 48 3e 9a 7f 0a 3e
       0.0040539266 -0.17165439 0.19593899 0.13525239
0002b0 95 1e 58 3d 2d 82 8d 3c 3f 6a 54 be ff dd 4b bc
       0.05276354 0.017273987 -0.20743655 -0.012443065
0002c0 6d 70 2d 3e a6 1a c4 be c3 9f fa bd 98 f5 fb bd
       0.16937418 -0.3830158 -0.122375034 -0.12302703
0002d0 06 0f df be 01 54 ae 3c 6b 7e c6 3d 41 7c 35 be
       -0.4356615 0.02128029 0.09692081 -0.1772318
0002e0 26 6f df bb 0e f8 7b 3d ac 9f 2b ba 2a 74 8b be
       -0.00681867 0.06151586 -0.0006546925 -0.27237064
0002f0 80 ed c8 3e 07 b5 0c 3d 68 3b ff bd 41 29 86 3e
       0.39243698 0.03435233 -0.12462503 0.2620335
000300 f1 d1 c9 bd c5 7a c6 bd 66 bb 4e bc c9 33 1b be
       -0.09854496 -0.09691385 -0.012617921 -0.15156473
000310 ea c0 cb 3d da d4 9b 3e 3f 7c 96 3c 93 86 09 be
       0.09948905 0.3043583 0.018369792 -0.13430242
000320 bd ce 22 3d 86 9a 19 bc c1 26 be bd 53 b9 a7 be
       0.039747942 -0.00937522 -0.092847355 -0.3275858
000330 ea ab 00 3e 4d e6 59 3d 88 e3 e6 bd 40 1a 3e be
       0.1256558 0.053198148 -0.11273867 -0.18564701
000340 cb 9a 43 bd e3 94 09 bd cd 21 74 be a7 01 c6 be
       -0.047755044 -0.033589255 -0.23841019 -0.38673136
000350 f8 02 2c 3e 92 d3 15 bf 8c bb f1 bd 1a 95 81 be
       0.16798007 -0.58525956 -0.1180335 -0.25309068
000360 5e d9 0b 3e 28 a3 2a be 0b b4 a0 3b 05 e2 64 be
       0.13657138 -0.16663802 0.0049042753 -0.22351845
000370 4a 96 77 3e d1 35 c2 3d c2 d9 4d 3e c7 88 da bd
       0.24178424 0.09482921 0.201026 -0.106706195
000380 5b 07 11 3d a1 75 86 be 1d a7 3e 3e d5 dc 59 be
       0.035407405 -0.2626162 0.18618436 -0.21275647
000390 67 cb 60 3e 0f d8 3c be 85 5b ae bd 83 0a dc be
       0.21952592 -0.18441795 -0.0851355 -0.4297677
0003a0 05 b2 06 be 57 b7 1a 3e 5f e2 5a bd 09 5d 9f 3e
       -0.13153847 0.15109001 -0.05343854 0.31125668
0003b0 18 ec e3 3d da e7 15 3c a7 b0 94 bd d8 80 c8 3d
       0.11129016 0.009149516 -0.07260256 0.097902
0003c0 ff 19 39 bd 08 de 16 be 98 06 6e 3e d7 ce 9b bd
       -0.045190807 -0.14733136 0.23244703 -0.07607811
0003d0 96 9d 82 be c5 82 43 3e 1a ca a0 3d 06 35 8b be
       -0.25510854 0.19092853 0.07851048 -0.2718889
0003e0 09 b5 a5 be 21 33 87 be ec 69 ef bd 4a bf 4a 3e
       -0.3236468 -0.26406196 -0.11690125 0.19799533
0003f0 61 58 35 be a0 0c 93 bd 6d f5 ad 3d 33 6a 1d be
       -0.17709495 -0.071801424 0.08494077 -0.15372543

gru.bias_ih_l0 f4 [54]
000000 53 4e db 3c 64 a7 2a bd fb 9b 0f 3e 25 7e 34 be
       0.026770746 -0.041663542 0.14024346 -0.17626245
000010 87 de 2b 3e 31 10 6a 3e 2b 59 1f bd 35 0f 00 bd
       0.16784106 0.22857739 -0.038903397 -0.031264503
000020 e4 57 d2 bd 70 86 cc 3c d5 00 05 be 03 38 0f 3e
       -0.1027067 0.024966449 -0.12988599 0.1398621
000030 dc 0d a7 3d 72 d1 23 3e 42 8b 1b 3d ca 85 48 3d
       0.0815694 0.15997866 0.037974603 0.048955716
000040 4b e3 1d 3e e3 a4 2d 3c a0 ec 0d be db c0 c1 be
       0.15418737 0.010598394 -0.13859797 -0.3784245
000050 df 80 48 bd 62 54 4d 3e db 8a 8c 3c 21 2f 04 3e
       -0.048951026 0.2005172 0.017156055 0.12908603
000060 47 12 79 bd 02 22 44 3d d7 6b ed 3d 85 2e 0c 3e
       -0.060808446 0.047883995 0.115928344 0.13689621
000070 e7 3d e3 bc b2 78 54 3a 1b 68 57 be 5b 09 16 3e
       -0.027739478 0.0008105143 -0.21035807 0.14652006
000080 72 e8 bc bd a3 36 ac be 28 1a e2 bd 3c 6b 56 3e
       -0.09224023 -0.33635435 -0.11040145 0.20939344
000090 bf c5 d1 3b 2c c0 43 be 1f d3 82 be ff 3f e3 3b
       0.006401747 -0.19116277 -0.25551698 0.006935119
0000a0 e1 78 62 be 72 e6 13 3e 71 f2 c1 3c cb 4f 84 3e
       -0.22116424 0.14443377 0.023675175 0.25842127
0000b0 a7 9e fd bb df 38 9b bb 80 b1 0b be 67 c4 80 3d
       -0.00773986 -0.004737004 -0.1364193 0.06287461
0000c0 f0 31 6b be ab 57 cb be 15 f8 0c 3e fa 3b 78 be
       -0.22968268 -0.39715323 0.13766511 -0.24241629
0000d0 38 75 16 be f1 8e 90 3d
       -0.14693153 0.07058514

gru.bias_hh_l0 f4 [54]
000000 45 e6 3d 3e d7 aa 89 bc 02 15 d6 3d 18 e5 39 3e
       0.18544872 -0.016805096 0.10453226 0.18153799
000010 0d 5d c1 bd d6 ec 0b be 19 be 37 3d 0e fb 25 3e
       -0.09441576 -0.13664564 0.044859026 0.16209051
000020 a7 ad 76 3e 42 db 92 3d ec 61 93 bd 9b ae 89 3e
       0.2408968 0.07170726 -0.071964115 0.26891026
000030 23 7d 3f be 05 42 b4 3e 1a f9 e3 bd b6 10 af 3d
       -0.1870008 0.3520662 -0.11131497 0.08548109
000040 50 e7 8c 3c 06 53 2c bc 85 54 4d 3e 90 6c 4d be
       0.017200142 -0.010517841 0.20051773 -0.20060945
000050 d3 40 74 3e ae 31 3c be 24 c7 82 bc 1a 6a 62 be
       0.23852853 -0.18378326 -0.015964098 -0.22110787
000060 0d 1e 53 bd a6 78 53 bd 07 a2 3c be 9b 83 6f bd
       -0.05154233 -0.05162873 -0.18421184 -0.058475118
000070 59 df 12 be 66 9e 72 bc f4 24 a6 be 73 38 e0 3d
       -0.14343013 -0.014808273 -0.32450068 0.10948267
000080 21 2b e2 3c b6 80 0c 3d fd 4f 03 be 03 4f 1b bd
       0.027608456 0.034302436 -0.12823482 -0.03791715
000090 13 ac 37 be 99 91 d4 be 95 ae 5d be 4f d8 86 3e
       -0.17936735 -0.41517332 -0.21648629 0.26336905
0000a0 4c 12 a9 be b0 b1 91 be 1b 77 4e 3e 4e 1d bb 3e
       -0.33021772 -0.28455877 0.20162623 0.36545795
0000b0 cf f9 15 bc a0 78 bb bd 0d d9 b4 3e 3d 7f e7 bd
       -0.009153797 -0.09153867 0.35321847 -0.11303566
0000c0 9e 94 00 3f ff cc 2a be 09 ac 34 3e 2f 43 91 be
       0.5022677 -0.16679762 0.17643751 -0.2837157
0000d0 9f b8 f1 be 05 6d 4f 3e
       -0.47211167 0.20256431

gru.weight_ih_l1 f4 [54, 18]
000000 a5 c3 85 3e 9f dc 60 be 87 1c d8 bd b2 5b 99 be
       0.26125827 -0.2195916 -0.10552316 -0.2995277
000010 8e 14 8c 3e 22 d7 94 be 3b c6 d1 3d 9e 6c 91 3e
       0.27359432 -0.29070383 0.102428876 0.2840318
000020 43 4c 91 bd 30 93 ad be d4 00 e9 3d 92 5f e4 be
       -0.07094624 -0.33901358 0.11377111 -0.44604164
000030 9e e5 5f be 23 3f ab bd d6 cb a5 3e cb 23 bb be
       -0.21864936 -0.08361652 0.32382077 -0.36550745
000040 38 a2 31 3e 93 af ac be fb 38 c6 bc b3 90 ac 3e
       0.17347038 -0.33727702 -0.024197092 0.33704147
000050 92 cf 10 be 38 7a 4b 3e d3 b6 00 bf 5b b6 fd 3e
       -0.14141682 0.19870842 -0.5027897 0.4955319
000060 0a 9b 3b bd af 11 01 bd 9b 03 a9 3e 50 b5 83 bd
       -0.045802154 -0.031511005 0.33010563 -0.06431067
000070 39 c8 41 bd bc df fd bb e9 1c 3b 3e 83 03 9c bb
       -0.047310088 -0.0077476185 0.18272747 -0.004761161
000080 63 4f 10 bf e6 e1 ae bd 6b a4 42 3e 80 0f 8e 3e
       -0.56371135 -0.085391805 0.19008033 0.277462
000090 8c 9b a1 3d a2 8f 06 bd da 2d 86 bd a7 d7 8b be
       0.07890996 -0.032851823 -0.06551714 -0.27312967
0000a0 b6 59 09 be 96 5a b6 3a 9d 93 2f 3e 75 c3 29 be
       -0.13413128 0.0013912495 0.17146154 -0.16578467
0000b0 ac 2e 6a 3d 1e 57 0f 3d 54 97 a7 bd 48 34 ae 3e
       0.057173416 0.03499519 -0.081831604 0.34024262
0000c0 34 4f 25 be 48 8e ae 3c 7e cd e4 3c 9b 13 32 3e
       -0.16143495 0.02130808 0.027930018 0.17390291
0000d0 39 71 06 3e f2 16 31 be 3c bd 99 3d 96 99 52 3e
       0.13129129 -0.17293909 0.07506797 0.20566401
0000e0 0c 00 cb bd 5f 80 a2 3b 4c fe cb be 70 b5 d9 3e
       -0.09912118 0.0049591507 -0.3984245 0.42521238
0000f0 c2 70 7d 3e 98 b8 17 3d 8e aa 47 3e bd ca 26 3e
       0.24750045 0.037041277 0.19498655 0.16288276
000100 08 f8 4e be 68 73 18 bd 4c 82 23 bd 8e cc 41 be
       -0.20211804 -0.037219435 -0.039919183 -0.18925688
000110 ea 5c 10 bf f4 a6 84 bd b9 9f 8e be 85 69 56 3d
       -0.56391776 -0.06477156 -0.27856234 0.052346725
000120 21 40 7c be 81 b8 a8 3e bd d3 03 3b 3d cd 08 be
       -0.24633838 0.32953265 0.002011522 -0.13359542
000130 c5 50 3f be 65 65 81 be e9 9c 62 3e 82 19 80 bd
       -0.18683155 -0.2527267 0.22130169 -0.06254865
000140 09 ab 4b 3e 17 1e 90 3d d3 a1 c3 bd 73 6d 0f bc
       0.19889463 0.07036989 -0.0955235 -0.008754122
000150 7f e0 1b 3e a9 e4 11 3c d7 7b 0e 3d 48 b4 e6 ba
       0.15222357 0.0089046145 0.03478607 -0.0017601335
000160 cd 6a d6 3c 75 b3 89 bd 5b c5 09 bc ca 94 7a 3d
       0.026173973 -0.06723682 -0.00840887 0.061177053
000170 49 31 0d 3e 90 8f 99 bd 83 17 b7 3e 38 1e f1 39
       0.13788332 -0.074980855 0.35760126 0.00045989617
000180 5b a2 ab 3e 56 34 85 be 76 cd 82 3e a8 49 48 bd
       0.33522305 -0.26016492 0.2554738 -0.04889837
000190 9c 94 ab 3d 42 e9 6a be 8a ae 6d be f8 60 28 be
       0.08377954 -0.22940543 -0.23211113 -0.1644324
0001a0 d1 39 8c be f8 3d db bd 9b 09 88 bd 8a 3e 47 be
       -0.2738786 -0.10705179 -0.06642457 -0.1945745
0001b0 2a cd 57 be e1 d4 04 3e 9c ae 0e be 59 9a 83 be
       -0.21074358 0.12971832 -0.13933796 -0.25703695
0001c0 4b 84 1e be 3d 5f 95 bb 3d 68 69 3e ef f6 28 bd
       -0.15480153 -0.0045584724 0.2279367 -0.04125112
0001d0 ab 36 84 3d f4 8f 3c 3e 3b cb 3f 3e 61 dc 91 3d
       0.064557396 0.18414289 0.1872987 0.07122112
0001e0 d1 50 3a be ac ce ac bd e6 ec 1d be f8 67 bb 3d
       -0.18194892 -0.08437857 -0.15422401 0.0915069
0001f0 22 2a 60 be 53 aa 11 be a5 0d d7 3c cf e3 45 be
       -0.21891072 -0.1422513 0.026251623 -0.19325183
000200 76 cd 3b 3d e9 69 ba 3b 5a ee c4 bd f2 ee 8b 3e
       0.04585024 0.005688895 -0.096157745 0.27330738
000210 c4 8c e0 bd e3 a0 43 3d 9e 7b 6c 3e 62 36 95 bd
       -0.10964349 0.047760855 0.23094031 -0.07285763
000220 80 d8 5f be 9e 61 83 bc 2e b3 0b 3e 97 2c d5 bc
       -0.21859932 -0.016037758 0.1364257 -0.026022239
000230 42 fe c6 3c 15 ed 40 ba 01 c5 43 bd 1a 84 0c be
       0.024291161 -0.0007359547 -0.0477953 -0.13722268
000240 30 c8 6f 3d bf cc 3a 3e e2 4b 31 3e b4 21 3a be
       0.058540523 0.18242167 0.17314103 -0.18176919
000250 41 3a 57 3e e5 45 8f 3d dd 38 e4 3d 3f ac 48 be
       0.21018316 0.06995753 0.11143658 -0.19596957
000260 bf 7e 2f bb b6 ea 2c be 7e 5e 0c be 3a 52 38 be
       -0.0026778427 -0.1688641 -0.13707921 -0.18000117
000270 e3 39 9c 3d 1a 29 0b be 4e 39 6a be d5 fa 5f 3b
       0.076282285 -0.13589898 -0.22873423 0.0034176607
000280 79 34 f7 bc 7b b2 af bd 0a 01 13 be 3b a8 02 3f
       -0.030176388 -0.08578964 -0.14355865 0.5103795
000290 24 9c 29 3e cf 00 20 3d 14 4f 03 be 5a e4 69 3e
       0.16563469 0.03906327 -0.12823135 0.22841015
0002a0 77 d4 75 3e d8 3c 92 be 93 fb 9c 3e 9f 84 25 3e
       0.2400683 -0.28562045 0.30660686 0.16163872
0002b0 64 bb a8 3e 52 d0 4d 3e 4b 2b e7 3d 7c 47 46 be
       0.32955468 0.20098999 0.11287554 -0.19363207
0002c0 39 6a 0b be 5a ae 1f be 44 c0 d8 bc fc 89 9a be
       -0.1361474 -0.15593854 -0.026458867 -0.301834
0002d0 c6 06 28 bc e5 19 ad 3d 89 8e 57 be e4 05 7b bd
       -0.010255521 0.084522046 -0.21050467 -0.061284915
0002e0 0e 7d 44 3e 18 85 1b be 9a cf c2 3d 38 d3 e5 3d
       0.1918833 -0.1518749 0.09512253 0.112219274
0002f0 c8 02 24 be 90 16 8c be ed 6e e0 bd 57 96 48 3e
       -0.16016686 -0.27360964 -0.109586574 0.195886
000300 ff e8 06 3d 1e ff 32 3d d5 8e a6 be 81 7b 64 3e
       0.032937046 0.04370033 -0.32530847 0.22312738
000310 13 f5 a7 be 58 95 50 3e d4 45 24 3e 02 17 bb bc
       -0.32804164 0.2036947 0.16042262 -0.02283812
000320 cb 9d 03 3e a7 bc 22 bd 63 ff 8b 3d b9 bc 90 bd
       0.12853162 -0.039730694 0.068358205 -0.07067246
000330 dc 9c 45 bd e5 ee 2e 3e f1 9e 12 bc de 42 da 3c
       -0.048245296 0.17083319 -0.008949027 0.026643213
000340 14 03 5f 3e 13 05 8f be 12 13 00 bc d9 5c 89 bd
       0.21778518 -0.2793356 -0.007817047 -0.067071624
000350 9b 17 bb 3d 6f de 83 be fb 0c da bd 17 a6 e7 be
       0.09135362 -0.2575564 -0.10647007 -0.45243904
000360 de 19 3f 3d 45 3b 85 3e b7 2e 05 be 6a 83 d7 bc
       0.04665553 0.26021782 -0.13006102 -0.02630778
000370 d2 8a a8 be f4 5c 0c 3e 95 dc 61 bd 78 7b b0 bd
       -0.32918411 0.13707334 -0.055142004 -0.086173
000380 e7 59 46 3e 50 57 5f 3e dc bb ba bd 6e 07 68 be
       0.19370233 0.21810651 -0.091178626 -0.22659084
000390 24 07 29 3e e5 0e 0b be 5f 62 aa be 26 56 83 be
       0.1650663 -0.135799 -0.33278176 -0.25651664
0003a0 38 0c d5 bd 6a 1e 8f bd 87 8b 51 be 54 a3 ed 3d
       -0.10402721 -0.06988223 -0.20463382 0.11603418
0003b0 7f d7 b8 bd 53 5c 7d be 95 3c 55 be ac 01 f9 bb
       -0.090254776 -0.2474225 -0.20823891 -0.0075990763
0003c0 58 88 9c bd 71 24 bd 3d 03 f0 82 3e 25 b9 d2 3d
       -0.07643193 0.09235466 0.2557374 0.1028922
0003d0 44 96 f2 3d 69 5d 08 3e 93 be 67 3b fb 3f e9 bd
       0.11845067 0.13316883 0.0035361394 -0.113891564
0003e0 d4 d4 f9 3c f6 08 b8 3d 53 00 ef b9 03 2c d3 3d
       0.030496992 0.08986084 -0.00045585874 0.10311129
0003f0 6e 67 79 bd 05 d7 13 be 72 96 2b be dc d8 59 3d
       -0.060889654 -0.14437492 -0.16756609 0.05318533

gru.weight_hh_l1 f4 [54, 18]
000000 89 c1 81 be 7d c4 27 3e d9 7f 0d 3d 78 a9 ba 3d
       -0.25342968 0.16383548 0.034545753 0.09114355
000010 e2 eb fb 3d d1 22 0a be ea a4 19 be 6c e4 29 3e
       0.123008505 -0.13489844 -0.15004316 0.16591042
000020 12 b6 c7 bd 0c 17 84 3d fe bf 41 3e b0 76 59 3e
       -0.09751524 0.06449708 0.18920895 0.21236682
000030 21 c2 69 3e dd 87 5d 3e 1f df a3 be 6a 30 5c be
       0.2282796 0.21633859 -0.32006165 -0.21502843
000040 c2 2f 4b 3e d3 16 90 be 96 13 94 be cf ee 39 3e
       0.19842437 -0.28142413 -0.28921193 0.18157504
000050 33 45 db bc af fe a3 3d bd cc 37 bd 4a c3 11 3e
       -0.026766395 0.080075614 -0.044872988 0.14234653
000060 c5 a1 4e be 45 37 03 be 27 95 35 3e a7 39 b5 3e
       -0.20178898 -0.12814052 0.17732678 0.35395548
000070 58 dc 7c 3d ba cc ed bd 51 cc 76 3d 38 78 28 be
       0.061733574 -0.11611314 0.060253445 -0.1645211
000080 7d 06 3e 3e cd bd 82 3e 6e c7 24 3e ad 54 98 bc
       0.18557163 0.25535432 0.16091701 -0.018595064
000090 b7 1b 2e be 83 b0 bb bd f8 81 58 3d 00 03 35 3e
       -0.1700276 -0.09164526 0.052858323 0.17676926
0000a0 29 77 cb be 43 7b 20 3d 0f 52 77 3c 37 aa 6e bd
       -0.3973935 0.03918005 0.015095248 -0.0582678
0000b0 6d 62 d1 3d ae df e4 3d 25 7e a4 bd 49 0e d9 3d
       0.10223851 0.11175476 -0.08031873 0.10598428
0000c0 bd 84 63 be ad 11 c4 be 08 23 97 3d 69 13 ab be
       -0.22218604 -0.38294736 0.073797286 -0.33413246
0000d0 5d 1a b7 3e 26 42 21 3e 24 8c bd bd ca cb 72 bd
       0.357623 0.1574789 -0.09255245 -0.05927638
0000e0 d6 c9 90 be b7 08 76 3d 6f ea 01 3e 4a a8 4e bc
       -0.2827899 0.060066905 0.12687086 -0.012613365
0000f0 a0 e6 29 3e 27 47 2e be 81 af 30 3e bc fd a6 3e
       0.16591883 -0.1701933 0.1725445 0.3261546
000100 4f 1e 1c 3d ed b3 98 bd f6 02 64 bd 71 41 17 be
       0.038114842 -0.07456193 -0.055666886 -0.14771058
000110 aa d7 d2 bd f8 15 ab 3e 2b c4 3d 3e 0d b0 89 bd
       -0.10295041 0.33415198 0.18531863 -0.06723032
000120 29 8b b9 be ca cc a7 bd 2d e3 c9 be 64 d5 68 3e
       -0.36238983 -0.08193357 -0.39431134 0.22737652
000130 70 81 93 3a bc 4d 3a 3d b6 22 75 be 34 52 8c bd
       0.0011253785 0.04548429 -0.23939022 -0.068516165
000140 75 8e 38 3e 6d d6 27 bc bc 60 0a bd 02 fe 95 3e
       0.18023093 -0.010243994 -0.03378366 0.29295355
000150 aa a5 80 3e 05 a0 52 be 39 7c a4 be 42 af ea 3d
       0.25126392 -0.20568855 -0.32126024 0.11459209
000160 45 f3 dc 3d c0 13 00 be 8d 95 98 be 12 27 7c 3e
       0.107885875 -0.12507534 -0.29801598 0.24624279
000170 b0 3b 55 be 4e 0e 81 3e d1 11 98 bd 88 b3 37 be
       -0.2082355 0.25206226 -0.07425273 -0.1793958
000180 4d bd e8 3d 15 90 2a be cf 80 4f bc e0 e8 bf be
       0.11364231 -0.16656525 -0.012664988 -0.37482357
000190 ae c4 a5 3e bc c8 8a be de a4 11 3e 96 9b 5c be
       0.32376617 -0.27106273 0.14223048 -0.21543726
0001a0 d9 b2 91 bc b4 26 ce bd 84 ec cf 3d 02 b8 7e 3e
       -0.017785477 -0.10065976 0.10152534 0.24874881
0001b0 f4 97 4a be 41 84 99 bd f2 cf bd 3c d3 8b 06 be
       -0.19784528 -0.074959286 0.023170445 -0.13139276
0001c0 ee 06 90 bd 02 c8 7a bd fc 25 65 be ca 21 85 be
       -0.07032572 -0.0612259 -0.22377771 -0.26002342
0001d0 bb 03 1d 3e bd 4b 24 be b9 46 25 3d a4 7d b6 3c
       0.15333454 -0.16044517 0.04035065 0.022276707
0001e0 6a 9c 0d be 40 0a a3 be 89 ca e8 bc 84 3d ba be
       -0.13829198 -0.31843758 -0.028416889 -0.36375058
0001f0 db b2 c2 3b cc 2b f4 3c 16 28 9a 3d 77 a0 c1 3e
       0.0059417314 0.02980604 0.07527177 0.37817737
000200 0b db 37 be b4 ef b9 bd 55 a4 bf be 4f 2b 8f bc
       -0.17954652 -0.09078923 -0.37430063 -0.017476706
000210 a0 8a 8c bd a1 52 09 bd fd 95 ab 3d 6d b9 9f be
       -0.06862378 -0.033526067 0.08378217 -0.31196156
000220 14 7e b9 3e 5c 0d 66 3e f6 16 56 3e ef c7 ee bc
       0.36229002 0.22466034 0.20907196 -0.02914807
000230 da 48 f4 bd eb 11 2e 3e ca 29 ee 3d 66 0c fd bd
       -0.11927958 0.16999023 0.116290644 -0.123558804
000240 b6 15 fd bd 23 04 42 3e e0 54 63 be 65 89 b0 3d
       -0.12357657 0.1894689 -0.22200346 0.08619956
000250 30 d4 44 be a2 25 62 be 04 73 78 3d d2 76 f2 3d
       -0.19221568 -0.22084668 0.060656562 0.118390694
000260 b3 77 dd 3d 5e 4d e3 bd b9 c2 b3 3d a1 15 8a be
       0.108138464 -0.11098741 0.08777375 -0.26969627
000270 d5 87 e9 bd 07 93 9e be 80 fc 52 3d 03 e4 84 bc
       -0.11402861 -0.30971548 0.051510334 -0.016222006
000280 c0 0a a9 3d 73 80 b6 bc 08 20 c3 be 7b 14 76 be
       0.082540035 -0.022278046 -0.38110375 -0.2403125
000290 67 dd 10 be 6f 94 18 be f8 ac f8 bd d1 2d 93 be
       -0.14146958 -0.14900373 -0.12142366 -0.28745893
0002a0 c8 25 ef bd 12 1b 5d bc b6 da 09 bd ff 49 3e 3d
       -0.11677128 -0.013495224 -0.033655845 0.046457287
0002b0 6b ba 5b 3d 67 f7 f6 3d a3 36 d5 bc f2 e2 8a 3d
       0.05364458 0.12058907 -0.02602703 0.06781568
0002c0 8f ba 7b 3e c9 fd 5c 3e 85 4c e9 3d c5 d8 1e 3e
       0.24582885 0.21581186 0.11391548 0.15512379
0002d0 51 47 8a be 79 72 eb 3d d1 f1 21 bd a5 87 ec 3d
       -0.27007535 0.11496443 -0.039537255 0.1154931
0002e0 45 ba f2 bc 26 56 ad 3d a6 63 ed 3d 6b 3b b4 3d
       -0.029629836 0.08463697 0.11591272 0.088003956
0002f0 59 68 19 be 84 12 0e 3e 5b 6b 73 bd bc 21 c8 bc
       -0.14981212 0.1387425 -0.059428554 -0.024430148
000300 c1 fe ff 3d 2e f9 7e be 08 25 83 3c 79 39 6c bd
       0.12499762 -0.24899742 0.016008869 -0.057671998
000310 bf 02 38 3e 06 f4 78 bd 37 84 b0 be 48 fd 07 bd
       0.17969798 -0.060779594 -0.34475872 -0.033200532
000320 61 ae 70 be 06 e2 63 be 62 a9 95 be 0f bb 4b be
       -0.2350402 -0.2225419 -0.2923079 -0.19895576
000330 59 67 7b be e0 e2 c5 3d e1 41 ef 3d 35 25 32 3e
       -0.24551143 0.096624136 0.11682487 0.17397006
000340 2f 45 66 3e 61 13 9c 3e 75 ed 1c 3e 67 da b5 bc
       0.22487329 0.30483535 0.15324958 -0.022198869
000350 8a 8d 5b 3e ef 4a 8c 3d 33 ca 65 be c0 8e b4 bd
       0.21440712 0.0685023 -0.22440414 -0.0881629
000360 c3 4b 88 bd 21 ca a3 bd b1 46 99 3d f4 6c 9a 3e
       -0.066550754 -0.079975374 0.074841864 0.3016125
000370 db 24 69 be 37 d1 2a 3d 3b 34 91 3d 52 55 55 be
       -0.22767965 0.04170343 0.0709004 -0.20833328
000380 0a a7 9e bd a7 c0 33 be a6 bc 16 bd e2 8b 91 bc
       -0.07746704 -0.1755396 -0.036801003 -0.017766897
000390 c8 ab 93 bc 25 b0 8f be f7 2a f2 3d 84 45 13 3d
       -0.018026248 -0.28064075 0.11824601 0.035954967
0003a0 2e 75 16 3c 16 c7 15 be f1 00 25 be fb 16 25 be
       0.009183211 -0.14626727 -0.1611364 -0.16122048
0003b0 2f 43 45 3e 47 ed 02 bd b1 bb 96 be ad 0e 4d 3f
       0.1926391 -0.031964567 -0.29440072 0.8010052
0003c0 f1 12 98 be 9b 83 39 be e7 52 ed be 59 74 93 bd
       -0.2970195 -0.1811661 -0.46352312 -0.07199926
0003d0 30 d7 ef bc 1c 48 0a 3e e5 3e bd 3d 7e 9a 01 be
       -0.029277414 0.1350407 0.09240512 -0.1265659
0003e0 82 92 4f 3e aa c3 1b bf 99 72 68 3d 6d 4e c9 3c
       0.20270732 -0.60845435 0.056749914 0.02457353
0003f0 c9 35 d1 be dd b2 03 3d 4d dc 8c be 76 4f 4f 3e
       -0.40861347 0.032153 -0.27511826 0.20245156

gru.bias_ih_l1 f4 [54]
000000 c8 59 59 3e 43 ad 00 be 00 36 18 3e 95 4b 15 3e
       0.21225655 -0.12566094 0.1486435 0.14579614
000010 a2 35 1a bc 8b eb dd 3d c4 1f a2 bd 39 e1 ab 3e
       -0.009412201 0.10835942 -0.07916215 0.3357027
000020 5e 21 30 3e 6a 1e ab bc b5 0b 25 3e 42 c2 dd bd
       0.17200229 -0.020888526 0.16117747 -0.10828067
000030 6a c8 8c 3e 94 70 3a 3e 22 a4 81 3e 3d 30 06 3e
       0.27496654 0.18207008 0.25320536 0.13104339
000040 9a 9b 8c 3e 65 44 cb 3e 60 71 ad 3d 97 36 91 be
       0.27462465 0.39700618 0.0846889 -0.2836196
000050 35 ba a8 bb 7d ce 0c be 86 a1 01 3e 67 2f fd 3d
       -0.0051491507 -0.13750644 0.12659273 0.12362557
000060 30 33 9c 3d b1 18 e3 bd 74 ba 3a be b3 30 af bd
       0.07626951 -0.11088694 -0.18235189 -0.085542105
000070 78 20 9f 3c d5 ba 07 be e2 ee c7 3d 0b 94 26 be
       0.019424662 -0.13254865 0.0976236 -0.16267411
000080 b3 7a 87 bd 80 22 ec bd 9a 05 14 3c a2 b3 ed bd
       -0.066152 -0.11530018 0.009034539 -0.11606528
000090 76 35 af 3d 44 b2 b6 3e f5 ee 87 be d1 4d 16 bd
       0.08555119 0.3568288 -0.26549497 -0.036695305
0000a0 b3 f9 80 be 79 b2 ac bd a3 af 42 3e 9d f9 56 be
       -0.25190505 -0.084324785 0.19012313 -0.20993657
0000b0 95 f2 6f be b1 7e 86 be cd 4e 34 3e 87 8d 21 be
       -0.23432381 -0.26268533 0.17608185 -0.15776645
0000c0 1f 8e 36 be 32 9b e0 3d eb 80 30 3e 14 28 80 bc
       -0.17827652 0.10967101 0.17236678 -0.01564411
0000d0 fd bd ed 3d e5 95 ca bd
       0.11608503 -0.09891871

gru.bias_hh_l1 f4 [54]
000000 40 53 93 3d 01 54 70 3e 7b 84 2f 3e 2b 78 1a 3e
       0.07193613 0.23469545 0.17140381 0.15084903
000010 94 b5 cf bc 78 e8 3f 3e c6 9d 20 3e 00 50 d9 3c
       -0.025355138 0.18741024 0.15685186 0.026527405
000020 a9 24 9a bd 9f 80 88 3e da a4 97 3e 1d 46 56 3e
       -0.075265236 0.2666063 0.2961796 0.20925184
000030 b6 23 1c bd 74 84 ca 3c 68 e0 74 3e 27 08 9e bd
       -0.038119994 0.024721362 0.23913729 -0.07716399
000040 8c 4a c3 bd dd ca 8f bc e4 09 c3 bd fa 0d b2 bd
       -0.09535703 -0.017552787 -0.09523371 -0.08694072
000050 97 19 ba be 1a f4 ee 3d 7a 98 b5 bc 4e c6 02 3e
       -0.36347649 0.116676524 -0.022167433 0.1277096
000060 7a 55 03 be 61 de b8 3d 2d 0e 58 3e 81 80 96 be
       -0.12825575 0.090267904 0.21099158 -0.29394916
000070 60 4d 3d 3e e3 6f 28 be a2 3b fd 3d 94 d2 3b be
       0.18486547 -0.16448931 0.1236489 -0.18342048
000080 0c 58 b1 3c 8e dd 1b 3d 6b 1f 59 bd 16 73 94 3d
       0.02164843 0.038053088 -0.053008478 0.072485134
000090 35 78 34 bd ba da 8a 3e ba 13 e4 bd ca 88 81 3e
       -0.04405995 0.2712 -0.11136575 0.25299674
0000a0 f8 04 10 be 44 cf 3b 3e c4 bb 5c be fd 02 d7 bd
       -0.14064395 0.18340784 -0.21556002 -0.10498617
0000b0 e0 23 16 3e 40 c2 8c be 9e 25 11 be 77 5f c7 3d
       0.14662123 -0.2749195 -0.14174506 0.09735005
0000c0 10 af 3b 3e ea e8 c6 bd ea c4 41 3d a2 4d 25 3e
       0.183285 -0.097123936 0.047306933 0.16142896
0000d0 7b e2 2b 3e b4 4f 63 3e
       0.16785614 0.22198373

attention.total_ops f8 [1]
000000 00 00 00 00 00 00 00 00
       0.0

attention.total_params f8 [1]
000000 00 00 00 00 00 00 00 00
       0.0

attention.energy.total_ops f8 [1]
000000 00 00 00 00 00 00 00 00
       0.0

attention.energy.total_params f8 [1]
000000 00 00 00 00 00 00 00 00
       0.0

attention.energy.0.weight f4 [18, 18]
000000 b7 ff 07 3e fc 04 4a be ed 71 2a 3e 80 d1 6d be
       0.13281141 -0.19728464 0.16645022 -0.23224449
000010 f0 eb 9c bd d7 d0 c6 3e c4 f8 f9 bd 09 1b d3 3d
       -0.07662189 0.38831207 -0.122056514 0.10307891
000020 25 d5 0d be 6e aa 30 3c 7f e4 95 bc 6f 04 aa 3e
       -0.1385084 0.010782821 -0.018297432 0.33206508
000030 64 e6 33 3e bb 5e b9 3c c2 b9 8f 3e c2 33 c2 be
       0.17568356 0.022628179 0.2807141 -0.37930113
000040 51 a5 ea 3d b0 a7 de 3d 5e 46 a7 3e bd e7 30 3e
       0.11457313 0.108718276 0.32670873 0.17275901
000050 b6 7f 89 bd fc 3f bd bb 9b 12 02 3e 07 ea 2b be
       -0.06713812 -0.00577545 0.1270241 -0.16788493
000060 62 71 50 3e 3d 12 a1 3d d5 40 15 3e 05 dd 15 be
       0.20355752 0.07864807 0.14575513 -0.14635094
000070 03 56 59 bc 92 6d 88 be e1 94 93 be 9e 3e 9a 3d
       -0.013265136 -0.26646096 -0.28824523 0.075314745
000080 97 43 87 3d 30 15 bd 3e 6c af b1 bd b9 4a ab 3e
       0.066046886 0.36930227 -0.08676037 0.33455446
000090 82 72 6f bd 45 36 2d 3c 05 89 a7 bd cd c0 59 be
       -0.058458813 0.010572021 -0.08180431 -0.21264954
0000a0 04 74 bc bd 4c ef b2 3e cf ab 52 be 6f ad 94 be
       -0.09201816 0.34948194 -0.20573352 -0.2903857
0000b0 30 e3 ca be fa 00 48 bd 6e a2 8a 3d 76 7e 96 3e
       -0.39626455 -0.048829056 0.06769262 0.29393357
0000c0 f2 a8 b4 3d f9 41 54 be cb 0e c1 3d f2 7a 37 be
       0.08821286 -0.20728292 0.0942665 -0.17917994
0000d0 f1 ad 25 be 0e 92 d8 3d d7 2b 99 bd de a6 0a 3e
       -0.16179635 0.10574733 -0.07479065 0.13540217
0000e0 75 8c db 3d 21 df b3 be bc 2b 73 be ff 50 a0 3e
       0.107201494 -0.3513117 -0.23747152 0.31311795
0000f0 18 7e ae be 56 37 c7 3d d3 62 c9 bd 64 06 b1 3d
       -0.34080577 0.09727351 -0.09833302 0.08643797
000100 a6 9b a2 bb 1b 74 25 3e ba 29 80 3e b3 08 83 3c
       -0.0049624024 0.16157572 0.25031835 0.015995359
000110 7b 45 91 3d ac d6 0c be 93 de 4a bd d4 4c 6d be
       0.070933305 -0.13753766 -0.04952867 -0.23173839
000120 1f b4 97 bd 3d d5 88 3d 2b 56 ae be 9e 0f d6 3d
       -0.07407402 0.06681297 -0.34050116 0.104521975
000130 ef 09 15 be 2c 1b 5a be 3c 18 8e 3e 2b b6 9f 3e
       -0.1455457 -0.21299428 0.27752864 0.3119367
000140 e1 f4 a6 3e 02 8c ae be 45 65 22 be 46 aa dc bc
       0.32608703 -0.34091192 -0.15858944 -0.026936661
000150 8d ab a9 3d b2 85 1e be 8d 7f a7 bd 94 30 84 3e
       0.08284674 -0.15480688 -0.08178625 0.25818312
000160 3e c5 32 be e0 e9 e5 bd 83 2f 65 be 4f d6 c8 3c
       -0.17458054 -0.11226249 -0.22381406 0.024516253
000170 ab 89 31 3e f4 6b 8c be 70 9a f3 3d c1 b5 f1 3d
       0.17337672 -0.27426112 0.11894691 0.11802245
000180 8c 2d 29 be 85 88 be bd 93 d5 7e be b2 98 cf bd
       -0.16521281 -0.09303383 -0.2488616 -0.10136546
000190 22 0e de bc 48 13 a9 3e fd 59 f1 bc 7a ca f5 3d
       -0.027106348 0.33022523 -0.029461855 0.1200151
0001a0 be f9 6b 3e 0e 3c 62 be 40 2b 3c bd eb 1a 3f be
       0.23044488 -0.22093222 -0.045939684 -0.18662612
0001b0 15 0b 9a 3d ce 32 ab be 55 c1 b9 3e 68 d8 77 be
       0.07521645 -0.33437198 0.36280313 -0.24203646
0001c0 62 aa 08 3e 18 9b 98 3e 09 6b 86 be 7f fa 1a be
       0.13346246 0.29805827 -0.26253536 -0.15134619
0001d0 04 c1 d3 3d 36 65 65 3e 30 a1 7b 3e d4 03 7d 3e
       0.10339549 0.2240189 0.24573207 0.24708492
0001e0 af 1f 41 be ff a7 f4 3d 89 9f 5c 3e 88 a2 b9 bd
       -0.18859743 0.11946105 0.21545233 -0.090642035
0001f0 31 26 3e 3e e2 1b 05 be 64 40 92 3e 93 03 87 3e
       0.18569256 -0.12998918 0.2856475 0.26369914
000200 6e 0d b1 be e3 9a 55 3e 57 40 52 be 53 9c 17 3d
       -0.3458056 0.20859866 -0.20532356 0.037014317
000210 43 56 9f bd 01 7b 7a 3e 68 e9 9d 3e 0c 7b c0 bd
       -0.07780125 0.24460985 0.30842137 -0.09398469
000220 d5 d3 8c be 1f b6 a6 be 07 69 4a be 62 15 12 3e
       -0.27505365 -0.32560822 -0.19766627 0.1426597
000230 8b 72 99 3d 18 01 8c 3e 9c a0 8c bd af 1e 6d 3e
       0.074925505 0.27344584 -0.06866571 0.23156236
000240 61 07 37 be db 87 11 be 56 6e a4 3e e9 de 24 bd
       -0.17873909 -0.14211981 0.3211543 -0.040251646
000250 7b 71 20 3e 84 92 1c 3e 89 58 3a bd 15 56 38 bc
       0.1566829 0.15290266 -0.04549459 -0.011250992
000260 51 a1 a3 be ce 35 92 3e 64 05 a0 3e b3 83 03 bd
       -0.31959012 0.28556675 0.31254113 -0.03210802
000270 11 a7 a8 3e 8d 4d d5 bb 5a ec 8a 3e b4 18 0f 3d
       0.32939962 -0.006509489 0.27133447 0.034935668
000280 5d 77 8a 3c b8 0a 1b be 58 41 8e bd 0a 04 a6 3d
       0.01690262 -0.15140808 -0.06946057 0.08106239
000290 78 1b 7d 3e 9c db 8e be be f1 47 3d b0 45 21 3e
       0.2471751 -0.27901924 0.048814528 0.1574924
0002a0 69 c4 b3 be 16 54 0c be 9b 64 ea bc c3 b2 90 3e
       -0.35110787 -0.13703951 -0.028612426 0.28261384
0002b0 92 7e 07 3e e3 e3 c6 3e 9e ce 5b 3e 1f 74 54 3e
       0.13231876 0.3884574 0.21465537 0.20747422
0002c0 7b e7 75 3e 44 8e 28 3d 9b 49 dd bc 83 60 60 be
       0.24014084 0.0411513 -0.027012637 -0.21911816
0002d0 ef 8f 09 3e 04 d5 98 bd b7 b5 5b 3e c6 d5 b3 bd
       0.13433813 -0.074625045 0.21456037 -0.087810084
0002e0 a6 4e 67 bd e5 85 81 3e 58 b5 2a 3d 5c 88 37 ba
       -0.05647149 0.25297466 0.04167685 -0.0007001215
0002f0 02 03 f5 bc c3 ee 90 3e 4d 48 8e 3e 6a 11 de 3e
       -0.02990866 0.2830716 0.27789536 0.4337266
000300 e2 c5 84 3e 6d ee 99 3d e4 7c 5f 3e 8e fb 8a bd
       0.25932223 0.07516179 0.21824986 -0.067862615
000310 6c d6 1c 3e 16 66 44 be 4b 69 6c be 51 c5 06 bd
       0.1531617 -0.19179568 -0.23087041 -0.03290302
000320 2c cf 2c 3e 80 e5 9a be 4e e2 23 3e 23 2f 2e 3e
       0.16875905 -0.3025322 0.16004297 0.17010169
000330 07 12 ad be 26 28 c2 3d 9a cb 97 be c0 61 6d 3e
       -0.33802816 0.09480314 -0.29647523 0.2318182
000340 ab 84 39 3e f9 4a 20 bd 9e a8 57 3e da 09 97 ba
       0.18117015 -0.039134 0.21060416 -0.0011523322
000350 9a fc b1 3e 28 cf 90 3c c2 2a 98 bd e7 9d 9c 39
       0.34763032 0.017676905 -0.074300304 0.00029872285
000360 eb 62 73 bd 2f 48 95 3e 8a ab 8f be 41 c5 98 3e
       -0.059420507 0.29156634 -0.2806056 0.29837993
000370 c8 c8 00 bd 09 44 9c be 8a 73 81 3d b5 5c 50 3e
       -0.03144148 -0.30520657 0.063208655 0.20347865
000380 fd e3 43 3e 77 bf 7e be 69 96 50 be bf 62 a7 bd
       0.1912994 -0.24877726 -0.20369877 -0.08173131
000390 a0 c8 13 be 54 58 43 3e ea ae 38 be 1a 43 e4 bc
       -0.14432001 0.19076663 -0.18035474 -0.027864028
0003a0 e8 2d 0e 3e 88 17 d2 bd 11 cb 8f 3e cf d8 81 3e
       0.138847 -0.102583945 0.28084615 0.25360724
0003b0 f6 a8 6e be 65 7b b0 3e 51 75 85 3d f0 8a 40 be
       -0.23306641 0.34469143 0.06516517 -0.18803
0003c0 30 dc 9e 3e de b8 9b 3d 6f a9 eb 3b 38 f2 77 be
       0.31027365 0.0760362 0.007191829 -0.24213493
0003d0 0a 2c 75 be 62 b4 b3 bc 06 0a 50 be 92 d6 94 3d
       -0.23942581 -0.0219366 -0.20316324 0.072674885
0003e0 86 a8 b2 bd 78 11 c9 3e 67 13 4b 3d 79 70 28 be
       -0.087235495 0.3927114 0.04957905 -0.16449155
0003f0 58 b7 90 bc c6 1c 1d be 8a 44 15 3e 13 c3 b4 bd
       -0.01766555 -0.15343007 0.14576927 -0.0882627

attention.energy.0.bias f4 [18]
000000 70 48 57 be 24 61 7a 3e e8 ae 3f be ff 74 05 bd
       -0.21023726 0.24451119 -0.18719065 -0.03258228
000010 5b 7b 16 3e f3 cd 3c 3e 73 96 2d 3c 62 f6 c7 3d
       0.14695494 0.18437938 0.010594952 0.09763791
000020 63 e2 b2 bd 30 4d 92 be 32 28 8a bd f5 1e 61 be
       -0.08734586 -0.28574514 -0.06745948 -0.21984465
000030 99 42 7f bc 19 11 51 3e 57 90 a2 3d e3 92 11 be
       -0.015579843 0.20416678 0.07937687 -0.14216189
000040 da 23 11 be 61 3e f2 3d
       -0.14173833 0.11828304

attention.energy.1.total_ops f8 [1]
000000 00 00 00 00 00 00 00 00
       0.0

attention.energy.1.total_params f8 [1]
000000 00 00 00 00 00 00 00 00
       0.0

attention.energy.2.weight f4 [1, 18]
000000 d2 11 d5 3e dc 55 02 bf 8c 9e 0d 3f d7 ab 02 3f
       0.41615158 -0.5091226 0.5532005 0.51043457
000010 02 18 fb be df df de 3e bb 8e c7 3e 31 96 16 bf
       -0.49041754 0.43530175 0.38976082 -0.58822924
000020 22 30 12 3f 7d 49 96 3e 31 3f f2 3e a6 35 e5 3e
       0.57104695 0.29352942 0.47313836 0.44767493
000030 31 58 07 bf dc 81 c9 be e4 fb 06 3f 05 50 da 3e
       -0.52868944 -0.39356887 0.52728105 0.42639175
000040 23 ad d3 3e 36 be ff 3e
       0.4134303 0.49949807

classifier.weight f4 [2, 18]
000000 91 6c c4 bb c5 6e 0b 3f 0f 43 09 3f ee d6 41 3f
       -0.0059943874 0.54465896 0.5361795 0.7571858
000010 4c 02 aa bd f3 af 94 3e 2a 2c 9f bc 6d 57 69 3e
       -0.08301219 0.2904049 -0.019430239 0.22787257
000020 6e 58 03 3e c7 6e 8f be 2e a8 90 3d 9f 67 a8 be
       0.12826702 -0.28014204 0.07063328 -0.32891557
000030 bf fd e4 be ec b7 58 bf aa 06 16 3e f3 78 d2 3c
       -0.44724843 -0.8465564 0.1465098 0.025692439
000040 af 3d 04 3f b1 9b 41 3f 89 31 90 3e d5 7f 24 bf
       0.5165662 0.7562819 0.28162792 -0.64257556
000050 fc be 35 bf 9f a0 17 bf 4b c8 c4 3d 58 48 f2 be
       -0.70994544 -0.59229463 0.09608515 -0.4732082
000060 0b c1 ac 3d 13 df 23 be f3 52 db 3d e9 e9 fa 3e
       0.084352575 -0.16003065 0.10709181 0.49006584
000070 66 bc 97 be 36 0f bf 3d 7d 0d 00 3e f7 ae 33 3f
       -0.29635924 0.09329073 0.12505145 0.7018885
000080 33 f1 07 be 14 b1 68 3e 7d 63 0f bf d6 82 3d bf
       -0.13275604 0.227238 -0.5601118 -0.74027765

classifier.bias f4 [2]
000000 b7 be ef bd 47 1f 78 3e
       -0.11706298 0.24230681
