student32.pth (torch, 34214 bytes, 27 tensors)

total_ops f8 [1]
0.0
00000000: 0000 0000 0000 0000

total_params f8 [1]
0.0
00000000: 0000 0000 0000 0000

conv.total_ops f8 [1]
0.0
00000000: 0000 0000 0000 0000

conv.total_params f8 [1]
0.0
00000000: 0000 0000 0000 0000

conv.0.weight f4 [3, 1, 3, 20]
0.24892247 0.02743179 0.099597044 -0.07075131 0.05118142 -0.08622011 0.028685713 0.07793418
-0.051623322 -0.08359242 0.044711966 -0.14795913 -0.08548324 -0.06952214 -0.075584695 -0.028664228
-0.0351412 -0.09637182 0.03720108 0.09800767 0.12163008 0.08585598 0.03289978 0.08203327
0.116674125 0.053932168 -0.11100018 -0.08405607 -0.033313785 -0.08463692 -0.14117749 -0.046249963
0.076798834 -0.057777498 0.058464598 -0.0057786345 -0.08064152 0.0070591853 0.031239338 -0.036849987
0.20136769 0.032664362 -0.044323973 0.112313576 -0.0532217 -0.006492157 0.046777084 0.09784917
-0.119599365 -0.09677615 -0.07891461 0.0029263392 0.025879784 -0.02720883 -0.044587884 -0.10435115
0.045310147 0.1001627 -0.112321325 -0.030516343 -0.004765629 -0.06404079 -0.0404287 0.039946932
0.03753267 0.050676007 -0.0974594 0.092897326 -0.10541199 0.075603165 -0.016523411 -0.06691723
-0.11370321 0.12702478 -0.011239847 -0.057598278 0.058894303 -0.06137387 0.066676155 -0.019019304
0.044945225 0.057435952 -0.07398461 0.0049476437 -0.1035526 -0.09252273 0.009154195 -0.028349042
0.068142466 -0.031548377 -0.15885392 -0.043226644 0.080836564 -0.04018739 0.06367005 0.050932974
0.0540678 -0.019833904 0.07862386 0.054773998 0.03137801 -0.021709073 0.0110183 -0.022749595
-0.043962374 -0.0317928 0.014666621 -0.097905725 -0.12509659 0.015731744 0.0010243868 -0.060573224
0.08397573 -0.07560083 -0.01834459 0.05576718 0.09110021 0.014464489 -0.055275574 0.0607689
-0.035088792 0.08269291 -0.07538744 0.124496944 0.109839596 -0.069697104 -0.022938892 -0.024973102
0.12069241 0.06038959 -0.042451505 0.06707958 -0.058524866 -0.082240015 0.0970587 -0.10147742
-0.048820924 0.026005272 -0.09295167 -0.08498667 0.14952017 0.08406521 -0.0035225158 -0.016533857
0.057579134 0.100727454 -0.00025029405 -0.046441723 -0.06623417 -0.123071186 0.072032765 -0.049226645
0.006725913 0.0010905544 -0.024254292 -0.0914595 -0.13499829 0.03636504 0.03806742 0.0053087077
0.20135215 -0.050126847 0.09916084 -0.048033312 -0.059586152 -0.0125570325 0.04933466 0.037092425
0.04650606 0.1111076 -0.05054685 -0.033360254 -0.01891837 0.0833224 -0.064406835 -0.096468635
-0.017936416 -0.12978144 -0.11041846 -0.032693252
00000000: 88e5 7e3e a2b8 e03c 89f9 cb3d 10e6 90bd
00000010: 9ca3 513d 2b94 b0bd 4dfe ea3c f59b 9f3d
00000020: fa72 53bd 8132 abbd e523 373d 9982 17be
00000030: d611 afbd a061 8ebd 26cc 9abd 3ed1 eabc
00000040: 38f0 0fbd 975e c5bd 2960 183d 3fb8 c83d
00000050: 3119 f93d 43d5 af3d ebc1 063d 0f01 a83d
00000060: d8f2 ee3d fae7 5c3d 1054 e3bd 9725 acbd
00000070: 0974 08bd 1f56 adbd d590 10be 9a70 3dbd
00000080: b548 9d3d 19a8 6cbd 9378 6f3d b35a bdbb
00000090: 6227 a5bd bd50 e73b a4e9 ff3c 03f0 16bd
000000a0: 5533 4e3e 11cb 053d 0e8d 35bd a904 e63d
000000b0: fffe 59bd 29bc d4bb 5499 3f3d 2565 c83d
000000c0: 83f0 f4bd 9332 c6bd fc9d a1bd d3c7 3f3b
000000d0: d701 d43c 0de5 debc c9a1 36bd 0eb6 d5bd
000000e0: 2297 393d 1a22 cd3d b908 e6bd 69fd f9bc
000000f0: fe28 9cbb d127 83bd 9198 25bd 659f 233d
00000100: dbbb 193d a591 4f3d cb98 c7bd f440 be3d
00000110: 3ee2 d7bd d5d5 9a3d 1b5c 87bc e70b 89bd
00000120: 3bdd e8bd c912 023e 5627 38bc 2cec 6bbd
00000130: 273b 713d 2b63 7bbd 828d 883d 5fce 9bbc
00000140: 7c18 383d f641 6b3d 3e85 97bd d81f a23b
00000150: 6313 d4bd 8f7c bdbd 7afb 153c 403c e8bc
00000160: 478e 8b3d df38 01bd 9aaa 22be 6c0e 31bd
00000170: a48d a53d 889b 24bd 7165 823d 189f 503d
00000180: 3376 5d3d b67a a2bc 8c05 a13d b35a 603d
00000190: 3a86 003d 3ad7 b1bc 1a86 343c 5c5d babc
000001a0: e411 34bd 2b39 02bd 444c 703c cc82 c8bd
000001b0: 5219 00be dcdf 803c b844 863a a11b 78bd
000001c0: 78fb ab3d 9cd4 9abd 6547 96bc 206c 643d
000001d0: bf92 ba3d 77fc 6c3c a468 62bd cfe8 783d
000001e0: 44b9 0fbd e75a a93d bb64 9abd 41f8 fe3d
000001f0: 95f3 e03d 5bbd 8ebd 58ea bbbc 6494 ccbc
00000200: 952d f73d 135b 773d a1e1 2dbd 0561 893d
00000210: c5b7 6fbd 746d a8bd b6c6 c63d 65d3 cfbd
00000220: 73f8 47bd 0209 d53c 725d bebd 7e0d aebd
00000230: d11b 193e 612a ac3d 02da 66bb 0372 87bc
00000240: 19d8 6b3d 324a ce3d e639 83b9 ad39 3ebd
00000250: c8a5 87bd bf0c fcbd ea85 933d e1a1 49bd
00000260: 0c65 dc3b eff0 8e3a f0b0 c6bc 1e4f bbbd
00000270: fe3c 0abe 82f3 143d 95ec 1b3d abf4 ad3b
00000280: 422f 4e3e cf51 4dbd d714 cb3d 94be 44bd
00000290: 9c10 74bd 03bc 4dbc 2413 4a3d 3aee 173d
000002a0: 237d 3e3d 628c e33d 370a 4fbd c3a4 08bd
000002b0: b3fa 9abc efa4 aa3d bbe7 83bd 5991 c5bd
000002c0: 64ef 92bc 6de5 04be 1323 e2bd 5ce9 05bd

conv.0.bias f4 [3]
0.25809357 -0.07259111 0.36266044
00000000: d724 843e a6aa 94bd a1ae b93e

conv.1.total_ops f8 [1]
0.0
00000000: 0000 0000 0000 0000

conv.1.total_params f8 [1]
0.0
00000000: 0000 0000 0000 0000

gru.weight_ih_l0 f4 [54, 57]
0.15433916 -0.07277243 0.094759114 -0.014037768 0.07646236 -0.01638531 -0.12910458 -0.22150527
-0.06868816 -0.044499043 -0.28151348 -0.06817939 -0.09263589 0.36095312 -0.052186683 -0.2673575
-0.1402451 -0.21342225 -0.22929706 0.018862534 0.006162332 0.10231837 -0.20779245 -0.0847932
0.07380743 0.098173514 -0.13322031 0.20044132 -0.09256855 0.1354713 0.17803633 0.036833655
-0.07092198 0.09670119 -0.3091038 -0.33922505 -0.03675435 -0.0928907 0.21396476 -0.20052707
-0.22621533 -0.011198557 -0.0149955535 -0.15853989 0.07740586 -0.07665035 -0.16501698 -0.1629936
-0.30352002 0.105445474 0.12399818 0.2228783 -0.087042466 0.04050296 -0.06277165 0.057124726
0.056883506 -0.0013004808 0.06799416 -0.12988146 -0.32944217 -0.10136074 0.03927979 0.09662121
-0.14933108 -0.24973445 -0.09898608 0.13448302 0.08116454 -0.058351487 -0.07363794 -0.034853827
0.12498106 -0.039601374 -0.15342493 0.15474325 -0.10867651 -0.054763757 -0.20956083 -0.093553536
0.17224059 0.024281345 -0.086467676 0.2452652 0.102543704 0.09255006 0.11498201 0.1783101
-0.19975889 -0.21059087 -0.034420643 -0.023778759 0.17474498 0.06761305 -0.19203275 -0.19257559
-0.08632555 -0.29277456 -0.03950973 -0.121086165 -0.35953668 -0.03078645 -0.117284276 -0.015450348
-0.27461883 -0.07100999 0.00471323 0.1266635 0.070801534 -0.009694523 0.14310741 -0.090273544
0.21597396 0.3353625 -0.10255069 0.16494022 -0.22010234 -0.0039169085 0.32084873 -0.14028037
-0.08395866 0.028767595 0.26164553 0.15860067 -0.10743963 -0.021597974 -0.17857143 0.12597433
0.15267171 0.08339136 0.09669116 0.078933254 -0.28472754 0.042801674 -0.0106718205 -0.0027862762
-0.02126029 0.121010125 0.24861754 0.11298563 0.21086495 -0.18312629 0.11547575 0.1244338
-0.19369368 -0.23050295 -0.036295146 0.061497096 -0.028309578 -0.052738786 -0.14773673 -0.090424046
-0.18427828 -0.14053907 0.101239294 0.08246674 0.18807201 -0.17566015 -0.14701433 -0.08816772
-0.10434004 -0.1011443 0.1493375 -0.13292098 -0.09024961 0.08987496 0.13216287 -0.036639977
-0.24943538 -0.2543043 0.0059795263 0.10649573 0.14812605 0.21411604 -0.13159704 -0.09440308
0.020731982 0.16524754 -0.043216176 -0.15834701 -0.06447845 0.16075714 -0.22823066 -0.06166499
-0.114764236 -0.2435034 -0.18494676 0.21280521 -0.0074555892 -0.08986169 0.13662954 -0.114886634
0.11896669 0.09557839 0.09445637 -0.024511535 0.11490291 -0.043139875 -0.027490607 0.04576597
-0.09550137 0.07856467 0.13129355 -0.09033358 0.047716316 -0.06169602 -0.1483675 -0.13467419
-0.06607346 0.1737935 0.13732411 0.15211529 -0.1861529 -0.18300298 0.01766374 0.20683159
0.03801846 0.14040343 0.09735447 -0.1780883 0.1642992 -0.0025070705 -0.015714047 -0.20563138
-0.15674078 0.22188053 0.17308237 -0.08208525 -0.03824746 0.04323181 0.24174805 -0.032638106
-0.12563333 -0.075210705 0.1217891 -0.09372694 0.012039446 -0.08389966 0.02736372 -0.2038954
-0.012834425 -0.10713516 -0.101232246 -0.1358472 -0.1849129 -0.28192222 0.049476195 0.08572069
-0.059285637 0.12182896 -0.12174739 0.14480771 0.18394935 -0.28105688 0.07486925 -0.07571459
00000000: 160b 1e3e b609 95bd 1111 c23d abfe 65bc
00000010: 4c98 9c3d 7c3a 86bc fe33 04be 47d2 62be
00000020: 61ac 8cbd a144 36bd 8922 90be a3a1 8bbd
00000030: e3b7 bdbd d9ce b83e b4c1 55bd 15e3 88be
00000040: 699c 0fbe 5d8b 5abe d9cc 6abe 9a85 9a3c
00000050: 63ed c93b 4b8c d13d 8bc7 54be 0fa8 adbd
00000060: 5a28 973d 320f c93d e86a 08be 7d40 4d3e
00000070: 9494 bdbd fdb8 0a3e 284f 363e e3de 163d
00000080: 8b3f 91bd 460b c63d da42 9ebe e8ae adbe
00000090: bb8b 16bd 7b3d bebd 9419 5b3e f856 4dbe
000000a0: fea4 67be 277a 37bc e9af 75bc 4858 22be
000000b0: f786 9e3d dcfa 9cbd 36fa 28be cbe7 26be
000000c0: fa66 9bbe ccf3 d73d c2f2 fd3d 363a 643e
000000d0: 5243 b2bd 6fe6 253d 6c8e 80bd 9efb 693d
000000e0: aefe 683d e574 aaba 8640 8b3d a5ff 04be
000000f0: a5ac a8be 3896 cfbd d8e3 203d 57e1 c53d
00000100: 3fea 18be 63ba 7fbe 37b9 cabd ebb5 093e
00000110: 9839 a63d f801 6fbd 7dcf 96bd e3c2 0ebd
00000120: 12f6 ff3d 0d35 22bd 6d1b 1dbe 0475 1e3e
00000130: ca91 debd f64f 60bd 1d97 56be ff98 bfbd
00000140: d65f 303e ace9 c63c f715 b1bd cd26 7b3e
00000150: 6f02 d23d e38a bd3d b07b eb3d ec96 363e
00000160: 988d 4cbe 22a5 57be a9fc 0cbd accb c2bc
00000170: 59f0 323e b678 8a3d 3ca4 44be 8932 45be
00000180: 73cb b0bd 8ce6 95be f4d4 21bd 06fc f7bd
00000190: 3115 b8be dd33 fcbc bd32 f0bd 7523 7dbc
000001a0: d79a 8cbe b06d 91bd 7071 9a3b 14b4 013e
000001b0: 6500 913d c7d5 1ebc c08a 123e 56e1 b8bd
000001c0: 4728 5d3e a2b4 ab3e 1906 d2bd 17e6 283e
000001d0: 8262 61be 6959 80bb 4946 a43e a8a5 0fbe
000001e0: 85f2 abbd 05aa eb3c 67f6 853e 3768 223e
000001f0: 4f09 dcbd 3cee b0bc 6edb 36be 6aff 003e
00000200: f955 1c3e 17c9 aa3d 0406 c63d c2a7 a13d
00000210: cfc7 91be cf50 2f3d dcd8 2ebc f599 36bb
00000220: 0f2a aebc 28d4 f73d 9995 7e3e 0365 e73d
00000230: fbec 573e 7585 3bbe 8d7e ec3d 26d7 fe3d
00000240: a357 46be f708 6cbe 38aa 14bd 61e4 7b3d
00000250: 7de9 e7bc a004 58bd 4c48 17be 3e30 b9bd
00000260: 72b3 3cbe 79e9 0fbe 8c56 cf3d 52e4 a83d
00000270: f395 403e 41e0 33be ed8a 16be 4791 b4bd
00000280: 3bb0 d5bd be24 cfbd eeeb 183e 701c 08be
00000290: cad4 b8bd 5d10 b83d b455 073e cd13 16bd
000002a0: fd6b 7fbe 2c34 82be e7ef c33b 6f1a da3d
000002b0: 5bae 173e 3c41 5b3e 60c1 06be 6756 c1bd
000002c0: 1ed6 a93c a736 293e 7203 31bd b825 22be
000002d0: 470d 84bd 859d 243e 4cb5 69be 6e94 7cbd
000002e0: 8309 ebbd f558 79be af62 3dbe 9ce9 593e
000002f0: 044e f4bb 6809 b8bd 9de8 0b3e af49 ebbd
00000300: cfa4 f33d 9abe c33d 5772 c13d 6acc c8bc
00000310: 3852 eb3d 70b3 30bd fb33 e1bc 1975 3b3d
00000320: 3996 c3bd 84e6 a03d d171 063e d000 b9bd
00000330: 2f72 433d f7b4 7cbd a6ed 17be 08e8 09be
00000340: 8651 87bd ecf6 313e b19e 0c3e 1cc4 1b3e
00000350: de9e 3ebe 2265 3bbe 8cb3 903c a9cb 533e
00000360: 3fb9 1b3d ebc5 0f3e c861 c73d c85c 36be
00000370: 0d3e 283e aa4d 24bb bfba 80bc 0891 52be
00000380: a880 20be a634 633e 813c 313e 501c a8bd
00000390: 5ea9 1cbd d713 313d cd8c 773e 89af 05bd
000003a0: 06a6 00be 1208 9abd 906c f93d e9f3 bfbd
000003b0: 1941 453c 96d3 abbd e129 e03c f5c9 50be
000003c0: 7b47 52bc ae69 dbbd da52 cfbd 871b 0bbe
000003d0: cf59 3dbe 1c58 90be 8da7 4a3d 548e af3d
000003e0: 7fd5 72bd 7681 f93d b256 f9bd 7948 143e
000003f0: 385d 3c3e b0e6 8fbe 0d55 993d 4010 9bbd

gru.weight_hh_l0 f4 [54, 18]
0.06127806 -0.074141964 0.32244852 -0.15633148 -0.27379993 -0.21942623 -0.17351596 0.23975153
-0.04778347 -0.052903004 0.12985693 0.09809417 0.0060112234 0.11905294 0.02799749 -0.13245125
0.25246882 0.037362967 -0.07543182 -0.13313596 0.054982148 0.1924779 0.24630997 0.1869006
-0.2457756 -0.06881863 0.1578524 0.068097554 -0.10275734 0.18376714 -0.29663184 -0.23874857
-0.09610965 0.073080316 0.08886787 -0.08614643 0.1823395 -0.22738682 -0.22000603 0.067721985
-0.21461482 -0.024254153 -0.037191577 -0.084923185 -0.007224723 -0.18412372 -0.05813638 0.014640817
-0.17047243 -0.059110135 0.3660813 -0.28021944 -0.082977995 0.011871371 -0.09412285 -0.091809146
-0.12184382 -0.13468464 -0.11927778 0.088371724 -0.16201742 -0.1856549 0.08845932 -0.111189276
0.078671105 0.2059575 0.00076075824 0.0019942436 0.0838432 -0.20029458 0.067421615 -0.0478747
-0.1446779 -0.116181344 0.09943878 -0.12464444 0.14171398 -0.1788517 0.054046128 -0.05442766
-0.15763745 0.012024551 0.1929029 -0.15186124 -0.06486797 -0.16126245 -0.051631086 0.22283252
-0.19061297 -0.25431713 -0.038308416 -0.03958063 -0.23240492 0.24911907 0.081162654 0.09729491
-0.075640365 -0.10415122 -0.1613732 -0.17027333 -0.2689034 0.122403316 -0.080388814 -0.057701677
-0.115046754 0.070876785 -0.027782885 0.020782156 0.24472463 0.2404188 -0.09524415 0.019706206
0.034704503 0.010311925 -0.24470966 -0.09852848 -0.08427366 0.21959212 -0.21981706 0.17842698
-0.16880569 -0.27697566 -0.18567568 -0.061389253 0.44693357 0.34350154 -0.1781142 0.086988054
0.11436741 -0.12949735 0.14301637 0.064479455 0.2311757 -0.18900327 0.017621038 0.07811603
0.023338435 0.12267923 0.26062343 0.14841737 0.09475648 -0.18835115 -0.27613103 -0.10773826
-0.1390428 0.11261211 0.04096501 0.011958791 -0.124675184 0.042390045 -0.07896056 -0.07923755
-0.024022872 -0.065075144 0.016679978 0.1967767 -0.14541751 0.08964696 -0.15417072 0.10403566
-0.19170687 -0.17794876 -0.3987059 0.038599793 0.043886527 0.13576925 -0.014952727 0.0059840498
0.06431773 -0.02074164 0.06164864 -0.19118564 -0.14658464 -0.1079028 0.03271775 -0.12618046
-0.121988945 0.069376044 -0.034048576 -0.058145612 0.13985866 -0.08171452 -0.014227954 0.338426
0.15047659 0.098757155 0.10466663 -0.10973403 0.09565254 0.018541759 0.16976717 0.023457814
-0.028431265 -0.05210854 -0.08770421 0.07176143 0.03271611 0.074812375 0.19611038 -0.11360632
0.16066064 0.025595495 -0.09216752 -0.07936583 -0.09952815 0.05477261 0.07787348 -0.080594465
0.15635347 0.14540972 0.018983673 -0.032644153 0.050409067 0.03608473 0.09658085 -0.02776692
0.12808405 -0.031509604 -0.17437676 -0.147167 0.076317124 -0.21374659 0.13239533 -0.0105903195
0.24448964 -0.04871237 -0.24896452 0.18581511 0.23393396 0.3350536 0.14624766 -0.3099518
-0.20918408 0.3932701 0.036915217 -0.10997406 -0.2608643 0.259191 0.06211525 0.15537566
-0.057483796 -0.1936182 -0.19228272 -0.015424029 -0.16005759 0.09397011 -0.264117 -0.2095467
-0.026270615 0.13102823 -0.072411425 0.0052483515 -0.20369253 -0.16523215 -0.13822144 0.048264667
00000000: b4fe 7a3d bed7 97bd f917 a53e 5c15 20be
00000010: 812f 8cbe 45b1 60be 2bae 31be 6d81 753e
00000020: 9ab8 43bd d2b0 58bd 37f9 043e 99e5 c83d
00000030: ccf9 c43b 07d2 f33d fe5a e53c 4da1 07be
00000040: 9843 813e e909 193d ff7b 9abd cb54 08be
00000050: f634 613d ed18 453e ae38 7c3e df62 3f3e
00000060: 99ac 7bbe c8f0 8cbd 0fa4 213e bb76 8b3d
00000070: 7172 d2bd 742d 3c3e 21e0 97be 817a 74be
00000080: 23d5 c4bd 22ab 953d 5c00 b63d 8a6d b0bd
00000090: 35b7 3a3e 17d8 68be 4349 61be d3b1 8a3d
000000a0: fdc3 5bbe a5b0 c6bc 3256 18bd 35ec adbd
000000b0: 5fbd ecbb ee8a 3cbe 6a20 6ebd 0ae0 6f3c
000000c0: 5390 2ebe 781d 72bd 026f bb3e ec78 8fbe
000000d0: 5ef0 a9bd 2480 423c 7bc3 c0bd 6f06 bcbd
000000e0: 4189 f9bd c5ea 09be e947 f4bd 3cfc b43d
000000f0: e5e7 25be 511c 3ebe 292a b53d 34b7 e3bd
00000100: 511e a13d 86e6 523e 9f6d 473a dbb1 023b
00000110: fcb5 ab3d 061a 4dbe 5814 8a3d 4318 44bd
00000120: 7226 14be 7cf0 edbd 8fa6 cb3d 9645 ffbd
00000130: 781d 113e e624 37be 795f 5d3d 8aef 5ebd
00000140: b66b 21be 9f02 453c 5688 453e 8381 1bbe
00000150: 80d9 84bd fc21 25be 1e7b 53bd 352e 643e
00000160: 0c30 43be db35 82be 49e9 1cbd 4c1f 22bd
00000170: 8efb 6dbe 1219 7f3e 9b38 a63d 8e42 c73d
00000180: 56e9 9abd 3c4d d5bd 043f 25be 225c 2ebe
00000190: b5ad 89be 97ae fa3d e4a2 a4bd 9858 6cbd
000001a0: a29d ebbd d927 913d ef98 e3bc 573f aa3c
000001b0: 1899 7a3e 5930 763e 5d0f c3bd e96e a13c
000001c0: 4f26 0e3d 59f3 283c 2b95 7abe 4dc9 c9bd
000001d0: ab97 acbd c2dc 603e b917 61be 90b5 363e
000001e0: 66db 2cbe c1cf 8dbe c421 3ebe 4c73 7bbd
000001f0: 7ad4 e43e 6fdf af3e 9263 36be cb26 b23d
00000200: 7639 ea3d f49a 04be e272 123e ce0d 843d
00000210: 53b9 6c3e 138a 41be ff59 903c 4cfb 9f3d
00000220: 3f30 bf3c 403f fb3d 6f70 853e b9fa 173e
00000230: af0f c23d 20df 40be 0c61 8dbe e0a5 dcbd
00000240: 3c61 0ebe 2ea1 e63d edca 273d ceee 433c
00000250: b455 ffbd 2fa1 2d3d 13b6 a1bd 4c47 a2bd
00000260: 9dcb c4bc 1e46 85bd 73a4 883c d57f 493e
00000270: 54e8 14be d398 b73d eede 1dbe a610 d53d
00000280: ce4e 44be 3338 36be 2e23 ccbe d11a 1e3d
00000290: 5cc2 333d 1807 0b3e 48fc 74bc d915 c43b
000002a0: 04b9 833d 5fea a9bc 4983 7c3d 2bc6 43be
000002b0: 491a 16be 25fc dcbd 0c03 063d 7335 01be
000002c0: 57d5 f9bd 0715 8e3d 8576 0bbd 182a 6ebd
000002d0: 1c37 0f3e f159 a7bd 5d1c 69bc 2c46 ad3e
000002e0: 8916 1a3e 3141 ca3d 755b d63d 3cbc e0bd
000002f0: 7be5 c33d e3e4 973c 72d7 2d3e 9a2a c03c
00000300: afe8 e8bc c46f 55bd 449e b3bd a8f7 923d
00000310: 5401 063d 3b37 993d 29d1 483e 6eaa e8bd
00000320: 3984 243e a5ad d13c 53c2 bcbd 8d8a a2bd
00000330: 6ad5 cbbd 3f59 603d 227c 9f3d b60e a5bd
00000340: 201b 203e 49e6 143e a683 9b3c e0b5 05bd
00000350: bd79 4e3d 95cd 133d 2ecc c53d 7477 e3bc
00000360: 7728 033e 3710 01bd d28f 32be f2b2 16be
00000370: 274c 9c3d 63e0 5abe a492 073e 0583 2dbc
00000380: 7e5b 7a3e 9f86 47bd 8ef0 7ebe 5146 3e3e
00000390: 628c 6f3e 258c ab3e f2c1 153e 01b2 9ebe
000003a0: 5a34 56be b35a c93e 6934 173d 143a e1bd
000003b0: 0190 85be afb4 843e 8f6c 7e3d cc1a 1f3e
000003c0: 2174 6bbd d943 46be c3e5 44be 11b5 7cbc
000003d0: 23e6 23be 6773 c03d 583a 87be 6993 56be
000003e0: 7935 d7bc 442c 063e 714c 94bd 5dfa ab3b
000003f0: c694 50be 9e32 29be ec89 0dbe 2cb1 453d

gru.bias_ih_l0 f4 [54]
-0.037271682 0.008905407 0.14891656 0.01855916 0.077001356 0.24314432 0.16849665 0.3316238
0.08604876 -0.05456175 -0.03512837 -0.09815902 -0.1997039 0.022777615 0.25867096 0.20539553
0.27247903 -0.100543134 -0.35937798 0.31739548 0.09954621 0.16381909 -0.07514321 0.13060749
0.16600405 -0.025709618 0.2778207 -0.030889308 0.23632784 -0.008381312 0.19769184 0.32538354
0.25078657 -0.2883659 0.2659305 -0.16932268 -0.08010577 0.17923865 0.15393513 -0.1284144
0.22882743 0.38618112 0.06504733 -0.18382375 -0.06609603 0.38952398 -0.15690094 -0.07858337
0.1908797 0.33376288 0.13379242 -0.14529061 0.14107235 0.061968397
00000000: 31aa 18bd fce7 113c 957d 183e 6109 983c
00000010: e3b2 9d3d d3fa 783e 638a 2c3e 98ca a93e
00000020: 553a b03d 247c 5fbd c4e2 0fbd 9907 c9bd
00000030: 2e7f 4cbe 1f98 ba3c 8570 843e 3553 523e
00000040: 5f82 8b3e 8fe9 cdbd 6400 b8be a981 a23e
00000050: e2de cb3d 31c0 273e afe4 99bd f8bd 053e
00000060: f7fc 293e fa9c d2bc 843e 8e3e 930b fdbc
00000070: edff 713e c551 09bc bb6f 4a3e ac98 a63e
00000080: 1967 803e b2a4 93be 0b28 883e ed62 2dbe
00000090: 7e0e a4bd 568a 373e 2ca1 1d3e 117f 03be
000000a0: bd51 6a3e 88b9 c53e 8937 853d 4b3c 3cbe
000000b0: 5b5d 87bd b06f c73e a4aa 20be 51f0 a0bd
000000c0: f875 433e f8e2 aa3e e100 093e 10c7 14be
000000d0: 4575 103e 93d2 7d3d

gru.bias_hh_l0 f4 [54]
-0.14684331 0.25364414 -0.20714965 -0.054997258 -0.19002354 -0.0029625678 0.27360147 0.3064015
-0.10032133 0.14534518 0.31518596 -0.03721792 -0.16487633 0.039656337 0.29194164 -0.020926433
0.21718355 0.006854495 -0.38717437 0.32410726 0.0022688017 0.42357522 -0.16834147 0.030068114
-0.060624998 -0.024998138 0.1820599 -0.018969737 0.27613613 0.102738164 0.10859826 0.4493937
-0.07594878 -0.053905554 -0.068306744 -0.32513183 -0.1654065 0.17433868 0.32105413 -0.12138133
-0.23185414 0.06709154 -0.24236797 -0.24540778 0.1931048 -0.023690665 0.18741293 0.2964768
-0.36869168 -0.031648494 0.24196734 0.10678372 -0.2541438 -0.3635364
00000000: 185e 16be a5dd 813e 0a1f 54be ce44 61bd
00000010: 8895 42be a427 42bb 7e15 8c3e a8e0 9c3e
00000020: 4575 cdbd 5ed5 143e 0e60 a13e d171 18bd
00000030: 57d5 28be af6e 223d 6079 953e e96d abbc
00000040: 5d65 5e3e ac9b e03b b83b c6be 63f1 a53e
00000050: 2db0 143b dade d83e b561 2cbe 6851 f63c
00000060: eb51 78bd e5c8 ccbc e96d 3a3e 6c66 9bbc
00000070: b761 8d3e 6368 d23d c468 de3d ee16 e63e
00000080: 098b 9bbd 12cc 5cbd 68e4 8bbd ae77 a6be
00000090: 5260 29be d785 323e 3561 a43e c696 f8bd
000000a0: 2c6b 6dbe 4a67 893d 4f2f 78be 2d4c 7bbe
000000b0: 44bd 453e ed12 c2bc 2de9 3f3e cfcb 973e
000000c0: 28c5 bcbe daa1 01bd 49c6 773e 6cb1 da3d
000000d0: 231f 82be 7121 babe

gru.weight_ih_l1 f4 [54, 18]
-0.09246943 -0.20770106 -0.112366036 -0.0473883 -0.19915992 0.13850051 0.07123921 0.091638096
0.3284895 -0.23521292 -0.14975572 0.14321086 0.153225 0.22934656 0.18733056 0.05601246
-0.1557349 -0.19464296 0.06734847 -0.36221397 0.18996496 0.10054014 0.08701925 0.23286365
0.13806841 -0.030886961 0.13977838 -0.17026949 0.08179087 0.039063614 0.054806225 0.28013605
-0.011401095 0.22721548 0.0113369115 -0.08465187 0.019720966 0.4041866 -0.13656713 0.056023266
0.05537811 0.049959764 0.29081866 0.21193811 0.15791903 0.09782811 0.14166032 0.3182662
0.115590006 0.057443008 0.13597497 0.22390315 -0.1623695 0.18315803 -0.07604384 0.08582482
0.22191393 0.24585699 0.22996277 0.18174374 -0.022191625 0.15136117 -0.1606503 0.15653688
-0.28459275 -0.11640794 -0.152899 -0.03769955 -0.08689225 -0.22832014 0.11336415 -0.20277758
-0.16179402 0.19885917 0.048509363 0.11370937 0.036592823 0.02644984 0.26076955 -0.03340722
0.32453066 -0.24027248 0.2276159 -0.103537336 -0.14359953 -0.022038741 0.2946921 0.093905084
-0.068845905 -0.29940122 -0.025212172 -0.043323707 -0.16384666 0.29691994 0.05709684 0.3591463
0.09437819 0.13881521 -0.13879365 -0.08981671 -0.097543456 -0.059039414 0.082065344 -0.092523925
0.14245993 -0.09238064 0.13080215 0.019251624 -0.12338065 0.011963588 -0.18569826 0.51290077
-0.13700394 0.10053283 0.08582548 -0.07478287 0.13290444 0.11349247 -0.31017366 0.0711347
-0.13679686 0.08761722 0.16827634 -0.09315773 -0.1624413 0.12051969 -0.25370824 -0.2023859
-0.04583554 -0.09007585 0.1660145 0.018302338 -0.09377209 0.13347952 -0.24085432 -0.14080743
-0.1297657 -0.050417967 -0.13336319 0.12568459 0.015183186 0.040416356 -0.023563834 -0.22904529
0.05304659 -0.29928035 0.05792431 0.368227 0.08646411 0.28892574 0.0789171 0.06804331
0.016812943 -0.024571948 0.05156213 0.0025032551 -0.28996977 -0.22538118 -0.041003488 -0.21227904
-0.17130803 -0.039886165 -0.07189593 0.296351 -0.23222293 0.107429765 0.067625254 -0.07271093
0.08196126 0.21778338 0.16083515 0.25896493 -0.24573492 -0.008832762 0.08139514 -0.17343879
-0.05472706 0.11113858 0.1879009 0.19983041 -0.09227824 0.46528217 -0.18080172 0.08094232
0.24606188 0.037538137 -0.17862709 -0.30080774 -0.02914002 0.61596686 -0.029373854 0.5038614
-0.11592169 -0.052269492 -0.10005824 0.22384255 0.13282724 0.076246716 -0.14209105 -0.522666
0.19560763 -0.19055445 0.0030971672 -0.21610937 0.122598656 0.1091897 0.020321578 -0.18590605
0.2054465 -0.014101643 -0.07325578 0.114445895 -0.095933184 -0.0720209 -0.3662964 0.0009946964
0.25851336 0.46594465 -0.25827572 0.010180591 0.095088296 -0.25722006 -0.06262664 -0.059979327
0.08146187 0.19926259 -0.06885842 -0.029436415 0.16175218 -0.11470438 0.17448145 0.24309023
-0.06792276 -0.07686797 -0.022468649 -0.06124564 -0.32045084 0.28577468 0.23061655 -0.078215346
0.28945774 -0.14035481 0.35908142 0.2344074 0.16034204 0.025656745 -0.02159335 0.0118965125
0.22116582 0.07670862 -0.44832084 -0.19229136 -0.2219067 -0.12901337 -0.17562932 0.15757576
00000000: 9d60 bdbd 96af 54be 2a20 e6bd 3c1a 42bd
00000010: 94f0 4bbe 14d3 0d3e dde5 913d c1ac bb3d
00000020: c72f a83e a8db 70be 9059 19be dea5 123e
00000030: 04e7 1c3e d3d9 6a3e 95d3 3f3e 526d 653d
00000040: f878 1fbe 7c50 47be ffed 893d 1c74 b9be
00000050: 2d86 423e fde7 cd3d 2637 b23d cf73 6e3e
00000060: ce61 0d3e a706 fdbc 1022 0f3e 205b 2ebe
00000070: f981 a73d 2b01 203d 7e7c 603d fe6d 8f3e
00000080: a9cb 3abc 2dab 683e 74be 393c f65d adbd
00000090: dd8d a13c 8cf1 ce3e 41d8 0bbe a778 653d
000000a0: 28d4 623d 9ca2 4c3d 2fe6 943e 4e06 593e
000000b0: 87b5 213e 1b5a c83d 670f 113e caf3 a23e
000000c0: 74ba ec3d 5c49 6b3d 063d 0b3e de46 653e
000000d0: 3144 26be c78d 3b3e dfbc 9bbd ecc4 af3d
000000e0: 683d 633e efc1 7b3e 5c7b 6b3e 081b 3a3e
000000f0: 36cb b5bc 6cfe 1a3e 8381 24be 344b 203e
00000100: 24b6 91be 4967 eebd 8e91 1cbe d86a 1abd
00000110: 90f4 b1bd c1cc 69be 772b e83d eda4 4fbe
00000120: 55ad 25be bda1 4b3e c1b1 463d 75e0 e83d
00000130: 5be2 153d 56ad d83c 9683 853e 02d6 08bd
00000140: e228 a63e fd09 76be 2414 693e 620b d4bd
00000150: c10b 13be 978a b4bc e2e1 963e 4f51 c03d
00000160: 15ff 8cbd 1e4b 99be c289 cebc 3374 31bd
00000170: 6bc7 27be e405 983e 60de 693d 06e2 b73e
00000180: 5a49 c13d 9325 0e3e ec1f 0ebe d3f1 b7bd
00000190: ddc4 c7bd 50d3 71bd e011 a83d 2f7d bdbd
000001a0: 04e1 113e 1032 bdbd 00f1 053e 95b5 9d3c
000001b0: ffae fcbd ed02 443c af27 3ebe 774d 033f
000001c0: c34a 0cbe 28e4 cd3d 45c5 af3d c327 99bd
000001d0: 1a18 083e bd6e e83d 15cf 9ebe 12af 913d
000001e0: 7a14 0cbe a870 b33d a250 2c3e 7bc9 bebd
000001f0: 0357 26be 07d3 f63d 0ce6 81be 403e 4fbe
00000200: 0cbe 3bbd b079 b8bd b5ff 293e c9ee 953c
00000210: 950b c0bd dbae 083e 84a2 76be d32f 10be
00000220: 4de1 04be 1283 4ebd 5c90 08be 76b3 003e
00000230: e6c2 783c 9f8b 253d f108 c1bc d98a 6abe
00000240: 6247 593d 463b 99be 0b42 6d3d 4088 bc3e
00000250: 1814 b13d 13ee 933e 4a9f a13d 4a5a 8b3d
00000260: 4cbb 893c 1c4b c9bc d032 533d a70d 243b
00000270: eb76 94be 53ca 66be 46f3 27bd ad5f 59be
00000280: 5f6b 2fbe ad5f 23bd 2c3e 93bd 51bb 973e
00000290: d9cb 6dbe 2304 dc3d 1c7f 8a3d 78e9 94bd
000002a0: 4edb a73d 9b02 5f3e f8b1 243e 0d97 843e
000002b0: efa1 7bbe 4ab7 10bc 7fb2 a63d f099 31be
000002c0: 7b29 60bd a09c e33d 1869 403e 58a0 4c3e
000002d0: 60fc bcbd 7739 ee3e 1624 39be 16c5 a53d
000002e0: a5f7 7b3e 97c1 193d 05ea 36be 7903 9abe
000002f0: 0db7 eebc 01b0 1d3f 70a1 f0bc 10fd 003f
00000300: 5a68 edbd 8918 56bd 56eb ccbd fb36 653e
00000310: dd03 083e 3d27 9c3d 5180 11be 70cd 05bf
00000320: 5e4d 483e b520 43be d8f9 4a3b c64b 5dbe
00000330: 0115 fb3d d99e df3d 7079 a63c 285e 3ebe
00000340: 9160 523e 940a 67bc 2007 96bd 9c62 ea3d
00000350: 9e78 c4bd b27f 93bd 348b bbbe 7960 823a
00000360: dd5b 843e 4c90 ee3e b73c 84be 7ecc 263c
00000370: a7bd c23d 59b2 83be 6542 80bd e2ac 75bd
00000380: 7bd5 a63d 7e0b 4c3e a505 8dbd a324 f1bc
00000390: 5da2 253e 21ea eabd 44ab 323e a5ec 783e
000003a0: 171b 8bbd f46c 9dbd 2c10 b8bc b5dc 7abd
000003b0: 2212 a4be 0f51 923e bf26 6c3e 5e2f a0bd
000003c0: ce33 943e 2cb9 0fbe 85d9 b73e 7e08 703e
000003d0: b430 243e 182e d23c 8ae4 b0bc 97e9 423c
000003e0: 4b79 623e 6919 9d3d 4f8a e5be 07e8 44be
000003f0: 833b 63be 151c 04be 2cd8 33be 8a5b 213e

gru.weight_hh_l1 f4 [54, 18]
0.038018607 -0.13092254 -0.21848698 -0.05247191 -0.058547117 -0.08069235 -0.005376605 -0.10082748
-0.08036645 -0.012168528 0.06008555 0.0189902 0.15440007 0.16329524 0.16672893 -0.03222293
0.034448996 -0.17527728 0.005459261 -0.115694545 -0.23533633 0.18179604 -0.023051782 -0.109951876
0.14152455 -0.2644721 -0.028207306 -0.15073128 0.35753754 0.29361147 0.056634158 0.019121634
-0.2017989 -0.16678654 -0.16904214 -0.05835745 0.21076503 0.21172495 -0.31271663 0.012425346
0.0055934303 -0.18301849 0.17401475 -0.056191254 -0.14934261 0.15596701 -0.2930946 -0.14472756
0.019161524 0.023577098 0.070445694 0.1701717 -0.009954448 0.022318874 -0.053636968 0.061005004
0.07278037 -0.025972378 0.18920784 -0.197677 0.23133424 -0.097833306 -0.062389176 0.093531094
0.42532703 0.0837899 -0.03091122 0.01637242 -0.10998997 0.07284712 0.013315215 -0.043015927
0.346222 0.021591991 -0.19303542 0.009088384 0.1682377 -0.00816888 -0.05943604 -0.045898903
-0.29330966 0.35376725 -0.036160983 0.19398019 -0.07125137 -0.033329196 -0.29651582 0.21857269
-0.064317934 0.17414996 0.28457797 -0.08807718 -0.28293073 0.12986201 0.09961576 -0.14771645
0.022664579 -0.36541298 0.053948186 0.102767035 0.2851701 0.27053085 0.14209329 -0.019917205
0.112383455 -0.2049512 0.023057334 -0.15878955 0.177859 0.04321996 -0.028447146 -0.28324962
-0.15630068 -0.010548924 0.27741823 -0.12760746 -0.00018096661 0.3133004 0.1866298 0.4737192
-0.05102057 0.31415856 -0.05446932 0.19638751 0.055255406 -0.05404189 -0.027555702 -0.24602924
0.31591973 0.02710032 -0.019545563 -0.2970526 -0.19999476 -0.27199066 0.18807648 0.050780088
0.28434506 0.089374825 0.077403605 -0.28392377 -0.1331728 -0.26348218 -0.0059180614 -0.17149276
-0.17766757 0.06655851 -0.117372796 0.221621 -0.22296456 0.090173766 -0.074153 -0.16282597
0.14149573 0.04316141 -0.0035013368 -0.009415075 0.013471072 0.18153752 -0.053778686 0.11735309
0.06390419 -0.24643692 0.059072264 -0.12880489 0.030932847 0.050881136 -0.16164966 0.12476978
-0.11809842 -0.022371387 0.064007275 -0.0321444 0.08716612 0.01134128 0.23250718 0.2552399
0.09365863 0.3036958 -0.13511355 -0.020134991 -0.09036883 0.33908823 -0.20804113 0.20397937
-0.32359543 0.036114287 0.2952049 -0.15996957 -0.16930072 0.29254916 0.010889759 -0.17181525
0.25905818 0.01181208 0.30256486 0.3760151 -0.4225937 0.0377472 0.07446129 -0.0798653
0.14522803 0.033510726 0.12285194 -0.23246059 -0.30493292 -0.25217235 0.07774802 -0.13134138
0.0049463175 0.33756444 -0.23102917 -0.3399975 -0.1825791 -0.4055307 0.15049376 0.061004158
0.07330339 -0.069503985 -0.26372713 0.088192105 -0.31575173 -0.102211125 -0.063813806 -0.030578662
0.005454701 0.04412911 0.114004955 -0.0062675574 -0.24704657 0.12764598 -0.029034719 0.23423305
-0.24091487 0.016803341 0.3015413 0.1269353 -0.118359536 -0.20477697 -0.09482903 0.056614276
0.34881082 -0.40159833 -0.31220105 0.22095777 0.2596987 0.093307815 0.079213165 0.28692707
0.29600674 0.37928972 -0.064452715 -0.07460774 0.1228049 0.058755286 -0.049511254 -0.013225803
00000000: 66b9 1b3d 8f10 06be 0dbb 5fbe c9ec 56bd
00000010: 1acf 6fbd 0842 a5bd 3b2e b0bb a37e cebd
00000020: 2a97 a4bd 815e 47bc 441c 763d 5691 9b3c
00000030: 0d1b 1e3e de36 273e fdba 2a3e 31fc 03bd
00000040: 641a 0d3d e37b 33be 9ae3 b23b 43f1 ecbd
00000050: 02fc 70be be28 3a3e 17d7 bcbc 732e e1bd
00000060: d0eb 103e e368 87be 0213 e7bc 4d59 1abe
00000070: 290f b73e 3e54 963e 38f9 673d f9a4 9c3c
00000080: 5fa4 4ebe 17ca 2abe 6219 2dbe 3908 6fbd
00000090: cad2 573e 6dce 583e 651c a0be ae93 4b3c
000000a0: 1849 b73b 3369 3bbe ec30 323e cd28 66bd
000000b0: 45ed 18be d1b5 1f3e 7f10 96be 7633 14be
000000c0: a1f8 9c3c c224 c13c d545 903d 7d41 2e3e
000000d0: fb17 23bc 12d6 b63c 70b2 5bbd 62e0 793d
000000e0: e00d 953d 06c4 d4bc b3bf 413e d76b 4abe
000000f0: e2e2 6c3e d45c c8bd cb8b 7fbd 3b8d bf3d
00000100: 77c4 d93e 0a9a ab3d 8739 fdbc 741f 863c
00000110: 6c42 e1bd df30 953d 0f28 5a3c 7831 30bd
00000120: 0344 b13e b0e1 b03c 14ab 45be 72e7 143c
00000130: 8146 2c3e c4d6 05bc 3573 73bd 7d00 3cbd
00000140: af2c 96be fb20 b53e 8a1d 14bd bea2 463e
00000150: 3dec 91bd 3284 08bd ecd0 97be 85d1 5f3e
00000160: 1fb9 83bd 5e54 323e 34b4 913e cf61 b4bd
00000170: 4cdc 90be 8cfa 043e 5903 cc3d fb42 17be
00000180: 11ab b93c 6917 bbbe c6f8 5c3d 8677 d23d
00000190: d101 923e 0583 8a3e e780 113e 6829 a3bc
000001a0: 4c29 e63d bade 51be bce2 bc3c ba99 22be
000001b0: ab20 363e 6a07 313d fd09 e9bc 1806 91be
000001c0: 490d 20be 65d5 2cbc c309 8e3e 88ab 02be
000001d0: dbc1 3db9 e968 a03e e21b 3f3e 538b f23e
000001e0: f2fa 50bd 64d9 a03e 391b 5fbd cf19 493e
000001f0: 7e53 623d 075b 5dbd 7fbc e1bc 17ef 7bbe
00000200: 3bc0 a13e 7e01 de3c 041e a0bc 4717 98be
00000210: 6dcb 4cbe 5c42 8bbe 1f97 403e c8fe 4f3d
00000220: ad95 913e 260a b73d c885 9e3d 755e 91be
00000230: 735e 08be 23e7 86be 4cec c1bb cc9b 2fbe
00000240: 7dee 35be d44f 883d 2661 f0bd 9ef0 623e
00000250: d250 64be 06ad b83d 87dd 97bd dabb 26be
00000260: 42e4 103e 05ca 303d af76 65bb b041 1abc
00000270: c5b5 5c3c f9e4 393e 0a47 5cbd d156 f03d
00000280: 33e0 823d f659 7cbe c2f5 713d 6ee5 03be
00000290: e266 fd3c bd68 503d 7d87 25be 4c87 ff3d
000002a0: 96dd f1bd 3344 b7bc 3f16 833d d9a9 03bd
000002b0: 2784 b23d c7d0 393c 5d16 6e3e ceae 823e
000002c0: 19d0 bf3d 047e 9b3e 355b 0abe 23f2 a4bc
000002d0: 4b13 b9bd f99c ad3e bc08 55be f8df 503e
000002e0: 4dae a5be 93ec 133d 1925 973e 10cf 23be
000002f0: 2b5d 2dbe 01c9 953e f66a 323c 56f0 2fbe
00000300: 46a3 843e 7487 413c c8e9 9a3e 0d85 c03e
00000310: 345e d8be cf9c 1a3d 297f 983d 6b90 a3bd
00000320: a8b6 143e 8b42 093d cc99 fb3d 260a 6ebe
00000330: 2b20 9cbe bc1c 81be 5b3a 9f3d 5b7e 06be
00000340: b814 a23b 3fd5 ac3e e992 6cbe 2714 aebe
00000350: 04f6 3abe b8a1 cfbe 091b 1a3e 7fdf 793d
00000360: 1620 963d 1b58 8ebd 3e07 87be 109e b43d
00000370: 36aa a1be 1154 d1bd d0b0 82bd 1a80 fabc
00000380: 59bd b23b bac0 343d 6e7b e93d 1560 cdbb
00000390: c7f9 7cbe a1b5 023e 38da edbc cada 6f3e
000003a0: 63b2 76be 29a7 893c 9f63 9a3e 54fb 013e
000003b0: 7c66 f2bd 0eb1 51be b935 c2bd 5fe4 673d
000003c0: 5597 b23e 4c9e cdbe d1d8 9fbe c142 623e
000003d0: 3af7 843e 2b18 bf3d 833a a23d 1be8 923e
000003e0: 328e 973e 4332 c23e c9ff 83bd f1cb 98bd
000003f0: 2381 fb3d 62a9 703d 50cc 4abd 0ab1 58bc

gru.bias_ih_l1 f4 [54]
-0.0053955982 -0.044207178 0.0016551492 0.25232813 0.0049107648 0.36236706 0.13570471 0.292148
0.012216584 -0.02975232 -0.10239179 0.079053566 0.061482422 0.34633476 0.28385267 -0.07105958
0.20078218 0.19491854 -0.2299521 -0.25050244 -0.07387588 -0.23489408 -0.13175535 -0.04691578
-0.366362 0.33700582 -0.13848421 -0.21531832 -0.35728797 -0.07739202 -0.058020476 -0.11703968
0.10311789 -0.07519557 -0.23763163 -0.15580861 0.09530267 -0.04664943 -0.06384438 0.20927867
0.10328236 0.05461748 -0.08748685 -0.3704608 -0.04207684 0.10946629 0.024274524 0.04169925
-0.18527876 -0.012139299 -0.054532047 0.08425532 0.25188473 -0.20261502
00000000: 8fcd b0bb 9612 35bd 97f1 d83a 2731 813e
00000010: 7bea a03b 2d88 b93e 2df6 0a3e 6c94 953e
00000020: 1128 483c 23bb f3bc c9b2 d1bd d6e6 a13d
00000030: fed4 7b3d ca52 b13e 2355 913e af87 91bd
00000040: d899 4d3e ba98 473e 9078 6bbe db41 80be
00000050: 3d4c 97bd 1388 70be e0ea 06be c32a 40bd
00000060: cd93 bbbe 078c ac3e cece 0dbe 687c 5cbe
00000070: 73ee b6be b57f 9ebd e1a6 6dbd 80b2 efbd
00000080: 792f d33d 2300 9abd b555 73be 4b8c 1fbe
00000090: 0c2e c33d 7913 3fbd d8c0 82bd 264d 563e
000000a0: b485 d33d 94b6 5f3d 4e2c b3bd 0aad bdbe
000000b0: c458 2cbd dd2f e03d 5edb c63c d5cc 2a3d
000000c0: b7b9 3dbe e9e3 46bc ff5c 5fbd 0e8e ac3d
000000d0: 09f7 803e 507a 4fbe

gru.bias_hh_l1 f4 [54]
0.13502951 0.28263447 0.0150797935 0.30334535 0.16218336 -0.03311162 0.26161796 0.15015745
0.29650924 0.22037026 -0.0008270142 0.15547286 0.15911238 -0.04704061 0.26531446 -0.07545365
0.21296187 0.00039128572 0.012827889 -0.040132537 0.11967384 -0.27567255 0.11863837 -0.15240934
-0.41817373 -0.10185377 -0.33243182 0.029383512 -0.26930588 0.30691957 -0.079269364 -0.27973023
-0.11265727 0.105491765 -0.14889582 0.011288808 0.20920704 -0.12973906 -0.1227619 0.16617462
0.057799015 0.0646621 0.17007148 0.04593132 -0.2578553 0.04534728 -0.027254146 0.0985953
0.21693134 -0.21027073 -0.046615675 -0.02374246 0.087245025 0.19952326
00000000: 2d45 0a3e 77b5 903e 3d11 773c 1550 9b3e
00000010: 6513 263e 0da0 07bd caf2 853e e0c2 193e
00000020: 0fd0 973e bea8 613e fccb 58ba 4734 1f3e
00000030: 5bee 223e a8ad 40bd 4cd7 873e 7187 9abd
00000040: ad12 5a3e 7b25 cd39 112c 523c 0462 24bd
00000050: 8f17 f53d f424 8dbe acf8 f23d 3211 1cbe
00000060: de1a d6be b698 d0bd 8134 aabe b1b5 f03c
00000070: 76e2 89be 9024 9d3e fa57 a2bd cd38 8fbe
00000080: dbb8 e6bd 110c d83d 2578 18be b1f4 383c
00000090: 5f3a 563e 51da 04be 976a fbbd ae29 2a3e
000000a0: a9be 6c3d 906d 843d 3827 2e3e 7b22 3c3d
000000b0: 9c05 84be 12be 393d 1644 dfbc 55ec c93d
000000c0: 4023 5e3e 3651 57be 14f0 3ebd 8c7f c2bc
000000d0: 85ad b23d d34f 4c3e

attention.total_ops f8 [1]
0.0
00000000: 0000 0000 0000 0000

attention.total_params f8 [1]
0.0
00000000: 0000 0000 0000 0000

attention.energy.total_ops f8 [1]
0.0
00000000: 0000 0000 0000 0000

attention.energy.total_params f8 [1]
0.0
00000000: 0000 0000 0000 0000

attention.energy.0.weight f4 [18, 18]
0.1020975 0.14750783 0.23829497 0.20297836 0.046649504 0.12632461 0.1833934 0.3336597
-0.17571712 -0.33035097 -0.51373905 0.15718338 -0.05434685 -0.10137386 0.1259249 0.13704644
0.016184708 -0.15011 -0.11917547 0.10092527 -0.421518 -0.14766112 0.14371423 -0.3909176
-0.04251362 -0.33023795 0.37427497 0.074607655 0.4623837 -0.009619138 -0.0008103656 0.14937185
0.21244892 0.21580407 -0.08099995 0.079193406 0.079657294 0.17148967 -0.3638833 -0.3469672
0.13905872 -0.32573074 0.05683532 -0.005892478 0.24226901 0.19815792 0.34481964 0.3579959
0.34136328 0.27568495 -0.15028132 0.0020482184 -0.19161427 -0.027926868 0.17364804 0.11253386
0.0828227 0.02725654 -0.19619542 0.17778076 0.06430217 0.047880564 -0.35444775 -0.2050576
-0.3693975 -0.20451765 -0.16595954 -0.30003932 -0.054424733 0.15820532 0.14550525 -0.2081513
0.13275011 -0.17365861 -0.31456733 -0.10924569 -0.08552387 -0.022375925 0.12028865 -0.30987105
0.0064633647 0.1923987 0.40652096 0.38006103 0.08389904 0.30780685 -0.20685326 0.077013016
0.0063443994 0.021382358 0.15195522 0.20303082 0.44969326 0.29557884 -0.045513954 0.22021297
-0.2600528 0.03750001 0.072415076 0.030490011 -0.3301363 -0.08333271 -0.1598344 -0.002226738
-0.0152233355 -0.08496592 0.2382505 -0.18933697 0.05048857 -0.050459594 -0.19266023 0.041183222
0.015774224 -0.15103452 0.23453127 -0.006530945 0.049830228 0.24836256 0.1971722 0.09401768
0.24844214 -0.02786398 0.13029553 0.0014315437 -0.34059718 -0.04516513 0.04702356 0.20293856
-0.36225936 0.014818144 -0.122738965 -0.24592295 0.056887772 -0.39933154 0.028771883 0.14712495
0.2851279 0.3638258 0.1698882 -0.048234053 -0.14640063 -0.04240468 -0.029944556 0.15081306
0.05921462 -0.017900964 0.42163062 0.34357542 0.19387305 0.2522152 0.20538186 0.06005685
-0.1818152 0.049135342 -0.41913038 -0.313848 -0.24649638 -0.27445424 0.18451059 -0.1657759
0.15362151 0.032266304 0.1829463 0.2749936 0.18692294 0.02170195 -0.26397952 -0.0445978
0.088857375 0.28968748 -0.077562384 -0.05141288 -0.26913002 -0.17136359 -0.076362655 -0.3141059
-0.17995557 -0.13626434 0.2658595 -0.28201932 -0.119215585 0.15795931 0.23076865 0.063818894
0.06318957 0.33259916 -0.15068156 0.3370739 -0.3109108 -0.17997265 -0.44737068 -0.05212463
-0.35031375 -0.22310342 -0.0961944 -0.0822631 -0.05030955 0.04517416 0.15025018 0.19086307
0.3321871 0.27516258 -0.09333737 0.36302313 0.006560706 0.11577277 -0.081782736 -0.14880277
-0.209348 -0.27009034 -0.25138888 -0.061928812 -0.20778006 -0.15063408 0.053318545 0.0601033
-0.041227575 0.1996985 -0.24764101 -0.26681572 0.18161677 -0.28988758 0.13762869 -0.16506599
0.35041168 0.15415145 0.20180243 0.085380666 -0.0054749954 0.32226816 0.19623992 0.2258219
-0.07588475 -0.079689644 0.0320547 -0.0848809 -0.13956311 0.0667768 0.17147225 -0.18849152
-0.16106196 -0.11632389 0.19409175 0.19175239 0.28972107 0.30449867 0.38264716 -0.030926662
-0.11598388 0.178093 -0.042463675 -0.13547742 -0.12957242 0.16015844 0.16833568 0.18876281
00000000: 7e18 d13d 4b0c 173e 9903 743e 8fd9 4f3e
00000010: 8d13 3f3d 3d5b 013e 7bcb 3b3e 72d5 aa3e
00000020: 30ef 33be c323 a9be 6784 03bf aef4 203e
00000030: cd9a 5ebd 199d cfbd 75f2 003e e755 0c3e
00000040: cb95 843c 70b6 19be 4512 f4bd e8b1 ce3d
00000050: 35d1 d7be 7a34 17be d329 133e 5a26 c8be
00000060: c322 2ebd f314 a9be f8a0 bf3e e6cb 983d
00000070: 8ebd ec3e 9799 1dbc b76e 54ba eff4 183e
00000080: 368c 593e befb 5c3e 4de3 a5bd 2730 a23d
00000090: 5d23 a33d fd9a 2f3e e94e babe afa5 b1be
000000a0: 6965 0e3e 2ec6 a6be 27cc 683d b015 c1bb
000000b0: 5e15 783e e9e9 4a3e 338c b03e 3d4b b73e
000000c0: 2bc7 ae3e 9426 8d3e 59e3 19be 673b 063b
000000d0: 8836 44be e3c6 e4bc cbd0 313e 2778 e63d
000000e0: f39e a93d 1b49 df3c 74e7 48be 290c 363e
000000f0: dbb0 833d 691e 443d 2d7a b5be 9ffa 51be
00000100: ab21 bdbe 136d 51be 4cf1 29be c19e 99be
00000110: 78ec 5ebd 9300 223e 54ff 143e 9d25 55be
00000120: a5ef 073e 90d3 31be f80e a1be 34bc dfbd
00000130: 2427 afbd b74d b7bc e559 f63d 6ba7 9ebe
00000140: a2ca d33b 2a04 453e 8423 d03e 5c97 c23e
00000150: 43d3 ab3d dc98 9d3e 57d1 53be 00b9 9d3d
00000160: aee4 cf3b 0e2a af3c 269a 1b3e 50e7 4f3e
00000170: 323e e63e 1c56 973e d76c 3abd 827f 613e
00000180: a425 85be 9c99 193d 5b4e 943d 30c6 f93c
00000190: a007 a9be 57aa aabd a1ab 23be 77ee 11bb
000001a0: 4c6b 79bc 9d02 aebd f0f7 733e 8de1 41be
000001b0: 1acd 4e3d b8ae 4ebd b948 45be bdaf 283d
000001c0: f238 813c cba8 1abe f728 703e 8a01 d6bb
000001d0: c81a 4c3d c152 7e3e 82e7 493e 578c c03d
000001e0: 9e67 7e3e 0043 e4bc 316c 053e a3a2 bb3a
000001f0: c162 aebe 12ff 38bd c79b 403d 20cf 4f3e
00000200: 0f7a b9be cdc7 723c 915e fbbd 3ad3 7bbe
00000210: 2703 693d 2f75 ccbe 03b3 eb3c eca7 163e
00000220: 49fc 913e 6047 ba3e 2cf7 2d3e 1291 45bd
00000230: 0cea 15be 88b0 2dbd 494e f5bc bd6e 1a3e
00000240: 088b 723d 0ba5 92bc f8df d73e 1ee9 af3e
00000250: a886 463e 5a22 813e 9f4f 523e 2cfe 753d
00000260: c42d 3abe 2442 493d 4298 d6be afb0 a0be
00000270: 8c69 7cbe 4485 8cbe 58f0 3c3e 28c1 29be
00000280: f54e 1d3e ac29 043d 4656 3b3e f6cb 8c3e
00000290: ba68 3f3e 4ac8 b13c 5328 87be 2fac 36bd
000002a0: dbfa b53d eb51 943e 07d9 9ebd 5096 52bd
000002b0: 69cb 89be f079 2fbe 0664 9cbd 7dd2 a0be
000002c0: 4646 38be e188 0bbe bd1e 883e d664 90be
000002d0: 4d27 f4bd 16c0 213e 9e4e 6c3e 7bb3 823d
000002e0: 8969 813d 704a aa3e 444c 1abe f394 ac3e
000002f0: b32f 9fbe c04a 38be c50d e5be a380 55bd
00000300: 535c b3be 3975 64be 9201 c5bd 8e79 a8bd
00000310: 6311 4ebd 8a08 393d 2fdb 193e 9c71 433e
00000320: 6d14 aa3e 1ce2 8c3e aa27 bfbd 2bde b93e
00000330: 31fb d63b 461a ed3d b57d a7bd c15f 18be
00000340: 525f 56be 4849 8abe 0bb6 80be 11a9 7dbd
00000350: 4cc4 54be d23f 1abe 8c64 5a3d e12e 763d
00000360: 3fde 28bd c37d 4c3e 9b95 7dbe 129c 88be
00000370: bff9 393e 256c 94be 89ee 0c3e 0f07 29be
00000380: 2969 b33e e1d9 1d3e 4ca5 4e3e 0fdc ae3d
00000390: 9767 b3bb 5500 a53e 1ef3 483e db3d 673e
000003a0: 7769 9bbd 5334 a3bd ca4b 033d 0ad6 adbd
000003b0: a2e9 0ebe 46c2 883d 6c96 2f3e ec03 41be
000003c0: 6ded 24be 383b eebd fdbf 463e bd5a 443e
000003d0: 5256 943e 40e7 9b3e 54ea c33e e959 fdbc
000003e0: f588 edbd 035e 363e 64ee 2dbd 98ba 0abe
000003f0: a2ae 04be 9300 243e 3060 2c3e 0a4b 413e

attention.energy.0.bias f4 [18]
0.31274447 0.05495339 -0.09929807 0.106794365 -0.29671973 0.06006502 -0.21172556 -0.28074205
0.0528712 0.116398595 0.0616214 -0.06374406 0.060757305 -0.24548997 0.24748395 0.15094739
-0.17721666 -0.20760927
00000000: 0b20 a03e ce16 613d c95c cbbd 01b7 da3d
00000010: a6eb 97be bd06 763d 96ce 58be 6cbd 8fbe
00000020: 798f 583d 6362 ee3d b966 7c3d 3f8c 82bd
00000030: a7dc 783d b961 7bbe 6f6c 7d3e f491 1a3e
00000040: 4978 35be 8697 54be

attention.energy.1.total_ops f8 [1]
0.0
00000000: 0000 0000 0000 0000

attention.energy.1.total_params f8 [1]
0.0
00000000: 0000 0000 0000 0000

attention.energy.2.weight f4 [1, 18]
-0.22701094 0.50135505 0.45244744 -0.21689701 0.46325734 -0.44717392 0.15993658 0.38627645
-0.4707497 -0.47859162 -0.6418424 -0.4995743 0.4712413 0.39161736 -0.6085477 -0.53568435
0.5165083 0.44448158
00000000: 8e75 68be ce58 003f 31a7 e73e 401a 5ebe
00000010: 1130 ed3e fbf3 e4be 6ac6 233e 07c6 c53e
00000020: 1b06 f1be f609 f5be c94f 24bf 34c8 ffbe
00000030: 8a46 f13e 1282 c83e c8c9 1bbf 9c22 09bf
00000040: e339 043f 1793 e33e

classifier.weight f4 [2, 18]
0.47055647 -0.4392142 0.41739076 -0.37981966 0.43578303 -0.23380467 -0.45748055 0.20853293
0.44450015 -0.1569209 -0.24766283 -0.15867406 -0.28134775 -0.16625565 -0.24032438 -0.16919518
0.33875507 0.3832848 -0.42595842 0.47050473 -0.13747735 0.33100557 -0.37890658 0.46547917
0.23741388 0.21074635 -0.30137476 0.23595925 0.16504483 -0.23540092 0.27299386 0.37669906
0.23778428 0.48604906 -0.30969512 -0.16157186
00000000: c7ec f03e afe0 e0be 3eb4 d53e b977 c2be
00000010: f41e df3e 7e6a 6fbe e43a eabe a889 553e
00000020: 8695 e33e dfaf 20be 539b 7dbe 747b 22be
00000030: d00c 90be ec3e 2abe 9817 76be 8041 2dbe
00000040: 4e71 ad3e e83d c43e 3917 dabe ffe5 f03e
00000050: ddc6 0cbe 9079 a93e 0b00 c2be 4953 ee3e
00000060: a01c 733e e4cd 573e cb4d 9abe 4d9f 713e
00000070: 8301 293e f00c 71be dac5 8b3e b3de c03e
00000080: b97d 733e 6cdb f83e 5c90 9ebe 1873 25be

classifier.bias f4 [2]
0.038108367 -0.17466049
00000000: 8517 1c3d 33da 32be
